demo/weights/bn-2_1_beta_0.npy (npy, 592 bytes, 1 tensors)

array f4 [128]
0	0xbe906b51	-0.28206876
1	0x3e789855	0.2427686
2	0xbe969c78	-0.2941625
3	0xbd641cab	-0.055691402
4	0x3aeb26d9	0.0017940655
5	0xbdf9ffc7	-0.12206989
6	0x3d941389	0.072302885
7	0x3da7460e	0.08167659
8	0xbed547f7	-0.41656467
9	0xbe525237	-0.20539175
10	0xbc5edeee	-0.013602955
11	0xbcc8b9c7	-0.024502648
12	0xbe27102a	-0.1631476
13	0x3d611491	0.054951254
14	0xbcd36040	-0.025802732
15	0xbeae0679	-0.33989313
16	0xbea63244	-0.32460225
17	0xbc82e120	-0.015976489
18	0xbe9379e8	-0.28803945
19	0xbe234738	-0.15945137
20	0x3e1679ea	0.14694944
21	0xbe8d3450	-0.27578974
22	0xbe3505c4	-0.1767798
23	0xbdca358b	-0.09873494
24	0x3e2e23ae	0.17005798
25	0xbedc7945	-0.4306127
26	0x3e746e97	0.23870312
27	0xbef6bb92	-0.4818998
28	0xbd394566	-0.0452322
29	0xbcd015ab	-0.025400957
30	0xbea50e85	-0.3223764
31	0xbe335dfd	-0.17516322
32	0xbdebd726	-0.11515646
33	0xbe4c9237	-0.19977652
34	0x3e6ec888	0.23318684
35	0xbed120be	-0.40845293
36	0x3df54b91	0.11977304
37	0xbee68b78	-0.4502828
38	0x3e860dee	0.26182503
39	0xbec55dc5	-0.38548103
40	0x3eb43e76	0.35203904
41	0xbca53ea3	-0.02017147
42	0x3c228736	0.009919932
43	0x3e38f400	0.18061829
44	0xbebc383e	-0.3676166
45	0xbd9d5e51	-0.07684005
46	0x3eb1c230	0.34718466
47	0x3db67364	0.08908728
48	0x3e4d7820	0.20065355
49	0x3e7f3b9d	0.24925084
50	0x3e8a5414	0.27017272
51	0x39316897	0.00016918998
52	0x3cd68c05	0.026189813
53	0xbef378e5	-0.47553173
54	0xbf1e405b	-0.6181695
55	0xbef9c947	-0.48786375
56	0x3da717da	0.08158846
57	0xbe9ee07f	-0.31030652
58	0xbd9de882	-0.07710363
59	0x3ece121d	0.40248194
60	0xbeb676c0	-0.35637474
61	0x3e17aa38	0.14811027
62	0x3e0ff00f	0.14056419
63	0x3e99cbcb	0.30038294
64	0xbe9ef4d5	-0.31046167
65	0xbd3db7c7	-0.04631784
66	0xbeed1fc5	-0.463133
67	0xbf009ad8	-0.5023627
68	0xbcc45107	-0.023964418
69	0xbc84da12	-0.016217265
70	0xbea14d1c	-0.31504142
71	0xbe867eb4	-0.26268542
72	0xbea32d64	-0.31870568
73	0xbe307b36	-0.17234501
74	0xbdd49775	-0.10380451
75	0xbe5940f9	-0.21216191
76	0xbdddfefb	-0.10839649
77	0xbd5fd08c	-0.054642245
78	0x3e2b733f	0.16743182
79	0x3e4cc37f	0.19996451
80	0xbeaf7d3f	-0.34275243
81	0x3e1e8163	0.15479045
82	0x3bf59470	0.007494502
83	0xbe8770dc	-0.26453292
84	0xbebdbed4	-0.37059653
85	0x3c9d9ddc	0.019240312
86	0xbe4c664a	-0.19960895
87	0xbe2cf0f2	-0.16888788
88	0x3e7225fb	0.23647301
89	0x3e4e091e	0.20120665
90	0x3e90186f	0.2814364
91	0x3e3bf5fd	0.18355556
92	0xbe442652	-0.19155243
93	0x3e16a6fc	0.14712137
94	0xbb508d32	-0.003182244
95	0xbee0cc66	-0.43905944
96	0xbdcbd51b	-0.09952756
97	0xbe13576e	-0.1438882
98	0xbe5a1f27	-0.21300946
99	0xbe6c7cb0	-0.2309444
100	0xbd842866	-0.06453018
101	0xbec5da12	-0.38642937
102	0xbea02ccb	-0.31284174
103	0x3e44ca6b	0.19217841
104	0xbcafdb26	-0.021466803
105	0xbef6fce5	-0.48239818
106	0xbb9d366c	-0.0047977474
107	0xbe27fd85	-0.16405304
108	0xbd33923d	-0.043840636
109	0xbd1ce721	-0.03830636
110	0xbd96d177	-0.07364171
111	0xbee9897a	-0.456127
112	0xbea676de	-0.32512563
113	0xbeb1dc88	-0.34738564
114	0xbee5691f	-0.44806764
115	0x3e191460	0.14949179
116	0xbec4011e	-0.38282102
117	0xbe88cd56	-0.2671916
118	0xbedd3931	-0.43207696
119	0xbe5844f9	-0.21120061
120	0x3d606e03	0.054792415
121	0x3d35e48d	0.044407416
122	0xbedc67fd	-0.43048087
123	0xbec5a228	-0.38600278
124	0x3d7e1cb3	0.06203909
125	0x3eba29c4	0.3635999
126	0xbe44b2d7	-0.19208847
127	0xbe24a8b7	-0.16079985
