demo/weights/bn-2_1_moving_mean_0.npy (npy, 592 bytes, 1 tensors)

array f4 [128]
-0.7754711 -0.58353716 -0.63876134 -1.4272225 -2.5754638 -1.7058877 0.2960173 -1.0422863
0.41435775 -2.856437 0.23797812 -1.3106523 -2.420229 -4.2680435 -3.047909 -0.35135156
0.33504352 -2.1909335 0.6340541 -4.3830853 -0.7441149 -0.13824773 0.17842263 -4.8672767
-0.28458142 4.0913396 -1.6908877 0.97931135 -1.2117339 -3.802683 0.058836784 -1.8589475
-4.759755 2.5669303 -1.9635693 0.8055145 -0.32357618 2.4922264 -1.5306582 0.3051227
-2.1026392 -2.723506 -2.5327926 -2.2438006 0.42529774 -2.8614616 -0.18230474 -2.4533365
-1.2900153 -1.6021872 -1.1888375 -1.7645686 -0.98260486 -0.74216825 1.1574033 1.0273858
-2.5284865 -0.13835989 -0.38315856 -1.6957371 -1.8651155 -1.7224276 -1.201512 -2.7216418
0.363817 -1.5390344 1.215027 -0.011015391 -3.535583 -3.3188076 0.10831486 -0.26963058
-4.867853 -1.7608585 -2.2093654 -2.2197037 -2.013262 -2.4274278 -2.6929574 -1.8858204
-2.159979 -1.4352177 -1.7400095 -0.34354854 1.3413609 -2.5867407 0.3330059 -1.7243466
-3.9987469 -2.1316962 -2.532846 -3.70453 -2.9765408 -0.91795737 -2.162063 3.2631512
-2.3960729 -1.3951511 1.236709 -0.8803617 -3.0921283 1.1099663 1.2184042 -1.4844333
1.7764992 1.4007187 -0.792702 -1.7141745 -1.1860392 -3.1774926 -1.8928721 0.6589789
-1.7249415 0.78973484 1.598188 -2.5783935 0.25304744 -8.699574 -0.33199444 -0.23975077
-0.96937346 -0.29888073 2.3422792 -5.2563 -2.0949407 -3.2427418 -1.1164024 -0.5518442
00000000: 4685 46bf b162 15bf dd85 23bf 3aaf b6bf
00000010: 66d4 24c0 875a dabf 948f 973e a369 85bf
00000020: b326 d43e ddcf 36c0 89b0 733e 74c3 a7bf
00000030: 08e5 1ac0 d093 88c0 f110 43c0 5ae4 b3be
00000040: d38a ab3e 4138 0cc0 5f51 223f 3c42 8cc0
00000050: 507e 3ebf d090 0dbe 6cb4 363e bbc0 9bc0
00000060: a8b4 91be 41ec 8240 026f d8bf 26b4 7a3f
00000070: 191a 9bbf 295f 73c0 d7fe 703d fef1 edbf
00000080: ea4f 98c0 9648 2440 3d56 fbbf 3336 4e3f
00000090: c7ab a5be a380 1f40 9cec c3bf 0b39 9c3e
000000a0: a491 06c0 ec4d 2ec0 4619 22c0 6e9a 0fc0
000000b0: a0c0 d93e 3022 37c0 18ae 3abe 7703 1dc0
000000c0: 391f a5bf 7814 cdbf d42b 98bf 62dd e1bf
000000d0: fe8b 7bbf bdfe 3dbf cb25 943f 6181 833f
000000e0: b9d2 21c0 37ae 0dbe 5c2d c4be ea0d d9bf
000000f0: 1bbc eebf 8278 dcbf 25cb 99bf 612f 2ec0
00000100: 3946 ba3e 14ff c4bf 0186 9b3f e679 34bc
00000110: fe46 62c0 5867 54c0 2ed4 dd3d 050d 8abe
00000120: 74c5 9bc0 d063 e1bf 3e66 0dc0 a00f 0ec0
00000130: 49d9 00c0 fa5a 1bc0 6a59 2cc0 9062 f1bf
00000140: 193d 0ac0 37b5 b7bf a2b8 debf 98e5 afbe
00000150: b7b1 ab3f 298d 25c0 c07f aa3e 64b7 dcbf
00000160: 78eb 7fc0 b66d 08c0 261a 22c0 0517 6dc0
00000170: a57f 3ec0 41ff 6abf 3d5f 0ac0 78d7 5040
00000180: 4259 19c0 5094 b2bf 7b4c 9e3f 625f 61bf
00000190: 6ee5 45c0 6013 8e3f abf4 9b3f e901 bebf
000001a0: 5364 e33f c04a b33f 85ee 4abf 126a dbbf
000001b0: 22d0 97bf 0a5c 4bc0 a249 f2bf d7b2 283f
000001c0: e2ca dcbf 102c 4a3f 6d91 cc3f 6604 25c0
000001d0: 6f8f 813e 7531 0bc1 2dfb a9be 3a81 75be
000001e0: dc28 78bf e506 99be e7e7 1540 9c33 a8c0
000001f0: 8213 06c0 1589 4fc0 46e6 8ebf a945 0dbf
