demo/weights/bn-3_3_moving_mean_0.npy (npy, 1104 bytes, 1 tensors)

array f4 [256]
000000 da 4b 08 3c 85 05 44 c0 1b e6 7c c0 c0 4c 43 bd
       0.008318866 -3.062837 -3.9515445 -0.047680616
000010 91 8f 39 be d5 c0 d6 3f 76 82 92 bf 62 d3 16 c1
       -0.18121172 1.6777598 -1.1446064 -9.426607
000020 01 5e 19 3e 96 83 c1 3f 12 1b ea be 57 9f 11 bf
       0.14977266 1.5118282 -0.45723778 -0.5688376
000030 e2 bf 02 3e 6b 7e de c0 38 ec d0 3e 97 2b 64 c0
       0.1276851 -6.952932 0.4080522 -3.5651605
000040 e7 3a 90 3e 08 75 c1 bf 15 95 41 3d 44 53 52 c0
       0.2816994 -1.511384 0.047261316 -3.2863321
000050 48 82 22 c0 a2 1c 58 bf 7a c7 f9 3f 60 53 ca c0
       -2.5392017 -0.8441869 1.9514 -6.3226776
000060 53 53 7c bf c0 45 ac bf 59 9a ba 3e 38 87 9f bf
       -0.9856464 -1.3458786 0.36445883 -1.246314
000070 2f 6d 20 3f 2d 3a 92 bf e5 7c bc 3a 73 87 be 3f
       0.626666 -1.1424004 0.0014380483 1.4885086
000080 96 3f 99 c0 89 35 86 c0 8d ae 9d c0 8f 46 ca c0
       -4.789012 -4.194035 -4.9275575 -6.321113
000090 e6 e8 f8 c0 94 ae ca bf 04 da a0 c0 0a e2 8e c0
       -7.77843 -1.5834527 -5.026613 -4.4650927
0000a0 f3 57 53 bd 5f 26 10 40 72 6e a0 c0 bb 98 aa bf
       -0.051597547 2.252342 -5.013482 -1.332786
0000b0 d6 e8 00 c1 41 e5 a7 c0 fe a5 3e c1 40 96 56 c0
       -8.056845 -5.246735 -11.915525 -3.3529205
0000c0 92 5f de bf cc 01 06 40 c7 be 69 c0 23 91 26 40
       -1.7372916 2.0938597 -3.6522691 2.6026084
0000d0 4f 78 e6 c0 be 8e 0d c0 b0 bd 67 c0 48 0e 8e bf
       -7.202186 -2.2118373 -3.6209526 -1.1098108
0000e0 70 96 4c c0 07 93 32 c0 ae bd 1c bf 97 ad a7 3f
       -3.196682 -2.7902238 -0.6122693 1.309985
0000f0 7e e6 9d c0 19 f3 c7 c0 9b ea 9a c0 73 c2 7b c0
       -4.9343863 -6.248425 -4.8411384 -3.9337432
000100 b7 ec 95 bf ed 38 4d 3e 30 88 a6 c0 6a fc 33 c0
       -1.1712865 0.20041247 -5.2041245 -2.8122811
000110 b7 af ce c0 f4 6e 46 c0 91 b0 89 c0 45 ac 0e c0
       -6.4589496 -3.100522 -4.3028035 -2.2292645
000120 9a 25 26 be d7 ae 08 c0 42 c4 95 c0 a0 ea 12 c0
       -0.16225281 -2.1356714 -4.6802073 -2.2955704
000130 45 25 47 3e f9 3f 32 c0 a3 17 b5 bf ed dd 0f bf
       0.19447811 -2.7851546 -1.4147838 -0.56198007
000140 17 77 39 c0 d5 08 38 3d 55 f8 5a c0 88 8f 7c 3e
       -2.8978937 0.044930298 -3.421407 0.24664128
000150 e4 e2 b0 bd e9 7d 36 c0 ed 7d 90 3d 8a 4c 34 c0
       -0.08637026 -2.851435 0.070552684 -2.8171716
000160 1c b9 00 c0 b4 89 c8 40 26 64 b5 c0 11 1c cd c0
       -2.0112982 6.2668095 -5.668475 -6.409676
000170 76 1b 68 3f a2 50 aa 3b e1 6c 49 c0 17 10 d5 c0
       0.906669 0.0051976005 -3.1472704 -6.658214
000180 6c 31 9c c0 1a 8b 03 c0 c5 30 04 c0 60 7c ed 3c
       -4.881033 -2.055365 -2.0654767 0.02898997
000190 88 d2 3f bf 42 40 82 c0 17 5e 2e c1 09 68 37 bc
       -0.7493062 -4.070344 -10.897971 -0.0111942375
0001a0 82 41 4c c0 25 f1 5a bf d1 f9 8c bf ae c9 0a bf
       -3.1914983 -0.8552421 -1.1013738 -0.5421399
0001b0 50 d4 91 bd 47 26 1c c1 47 b3 db bf f1 9d 0f c1
       -0.071205735 -9.759345 -1.7164086 -8.97606
0001c0 77 b4 39 c0 53 d1 a2 c0 06 53 dc bf aa 4e 78 c0
       -2.9016397 -5.0880523 -1.7212837 -3.8798013
0001d0 09 c1 bf c0 3f cf 42 c0 d4 f5 0c bf a4 ae a9 40
       -5.992314 -3.0438993 -0.55062604 5.3025684
0001e0 2d 21 54 c0 53 c7 a4 c0 32 ed b1 c0 64 43 27 c1
       -3.314525 -5.1493316 -5.5602045 -10.453953
0001f0 11 7a 08 c0 ce 1b e5 bf 82 22 dc bf 2d 9c db c0
       -2.1324503 -1.789911 -1.7198031 -6.8628144
000200 0a aa 95 c0 04 e4 06 c1 46 a5 d5 bf f5 e8 ee bf
       -4.6770067 -8.430668 -1.6691062 -1.8664843
000210 e2 04 dd c0 be 1b f5 3d 15 cd 00 c0 18 bb 4d c0
       -6.906846 0.11968182 -2.0125172 -3.2145443
000220 f3 91 8b bf 5e 6a 0d 3e a9 38 9c bf 39 d2 1c 3d
       -1.0903915 0.13810107 -1.2204791 0.03828642
000230 22 59 89 c0 11 0d 78 c0 8d ea b9 c0 17 50 10 c1
       -4.2921305 -3.8757975 -5.8098817 -9.019553
000240 ef fd 10 c0 52 a5 27 c0 c3 52 81 be c6 7f 79 3d
       -2.2654989 -2.6194654 -0.25258455 0.06091287
000250 7e 04 0e c0 85 80 9a bc 6a ba b4 40 b9 86 99 c0
       -2.2190242 -0.018860111 5.6477556 -4.7976956
000260 83 ef ac 3f 39 67 fa ba 3e 65 c0 c0 19 d5 b5 3e
       1.3510593 -0.0019104249 -6.0123587 0.35514143
000270 c4 36 7d bf 20 4c ce 3c 9b 10 9e c0 1d fc 6c bf
       -0.9891169 0.025182784 -4.939527 -0.92572194
000280 0c 8b 38 c0 e4 16 af 3c 5e a8 83 be e2 15 fa c0
       -2.8834867 0.02137322 -0.2571439 -7.8151712
000290 d9 4b 6f c0 90 ab 9e c0 61 e2 e9 c0 3d c6 fe bf
       -3.7390044 -4.9584427 -7.308884 -1.9904248
0002a0 c8 6d e2 3f 1a 03 ad c0 15 16 de 40 a5 ac ae bc
       1.7689753 -5.4066286 6.9401956 -0.021322558
0002b0 68 dd b4 bf 3e e4 2e c0 00 cd b9 bf 03 bb 5d 3e
       -1.4130068 -2.7326808 -1.4515686 0.2165337
0002c0 25 7f 9a c0 97 4c 8f 3e 6d b3 08 bd 20 e8 e2 c0
       -4.8280206 0.2798812 -0.03337424 -7.0908356
0002d0 3a a4 96 c0 1d da 1d c0 d7 4c fc c0 60 81 5f c0
       -4.707547 -2.4664376 -7.88438 -3.4922714
0002e0 5c 82 40 bd 22 e9 ba bf 40 00 10 bd 92 d2 24 be
       -0.04699932 -1.4602396 -0.03515649 -0.16095951
0002f0 34 d3 d6 c0 23 be 4a c0 e2 85 f4 bf a5 7a aa c0
       -6.7132816 -3.167855 -1.9103358 -5.3274713
000300 55 47 ab bf 05 8c 1e bf ec cf b7 c0 32 9b f4 c0
       -1.3381144 -0.619324 -5.744131 -7.6439447
000310 a1 11 4f c0 03 43 0e c1 60 6a 2d c0 66 18 9b 3c
       -3.235451 -8.89136 -2.7096176 0.018932533
000320 a4 ec 33 c0 9c 49 f7 bf 6a 26 2f bf c1 3c 40 c0
       -2.8113184 -1.9319339 -0.6841799 -3.0037081
000330 97 8b 77 3d ee 61 ad bb cf 67 f5 ba 8b 73 fe be
       0.060435858 -0.005291215 -0.0018722954 -0.49697527
000340 e8 3b 6b 3c 2f e7 87 3d d6 4a 92 c0 7a 89 56 c0
       0.0143575445 0.06635892 -4.5716352 -3.352141
000350 2b 60 83 40 3d 24 1f c1 45 34 71 c0 4b 2a af c0
       4.1054893 -9.946347 -3.7688153 -5.4739127
000360 75 f5 4e c0 5c a3 8e c0 61 15 87 c0 b3 41 14 c1
       -3.2337315 -4.4574413 -4.2213597 -9.26604
000370 58 8a ee 3e bc 2c c6 c0 00 5b 16 c0 4e 2b 93 c0
       0.46589923 -6.1929607 -2.3493042 -4.599036
000380 ac 6c 0c bf 98 16 e0 bf 14 f6 2b c0 9f 9f 65 bf
       -0.5485332 -1.7506895 -2.6868944 -0.8969669
000390 64 60 31 c0 f5 c1 9b c0 6f dc 6b 3c 33 20 1d 40
       -2.7715082 -4.8674264 0.014395817 2.4550903
0003a0 40 e5 9f c0 3a 33 04 c1 04 0e f7 bf ce 76 82 bb
       -4.9967346 -8.2625065 -1.9301152 -0.003981448
0003b0 ab 13 8b 40 48 88 ad c0 58 a9 f5 c0 3e 22 98 c0
       4.346151 -5.422886 -7.676922 -4.75418
0003c0 c4 ea 97 3d 2a c3 be c0 04 2b 2c 40 32 e4 bc be
       0.07417825 -5.9613237 2.6901255 -0.3689285
0003d0 6c 0e 68 c0 e9 75 a5 c0 19 54 2f 3f b8 be 5c 3d
       -3.6258802 -5.1706433 0.684877 0.05389282
0003e0 f9 82 87 bf 4c 7a bc bf 3c e9 17 3f 22 43 68 c0
       -1.0586845 -1.4724822 0.5934026 -3.6290975
0003f0 d7 86 05 3b 52 90 76 3e 4b 47 f6 be cf e2 51 40
       0.002037456 0.24078491 -0.48101267 3.2794683
