demo/weights/bn-4_1_beta_0.npy (npy, 1104 bytes, 1 tensors)

array f4 [256]
00000000: 04e1 4e3d 7f47 fcbe 96c6 b8be eeb2 ddbe
00000010: dc9b 12bf c404 803d 08d1 373e 15fe 903d
00000020: 4f97 c3be 1edf 27bf 8d83 03bf c39b aebe
00000030: 2146 c5be 3b15 e4bd fe15 b4be 3099 5ebb
00000040: 76b9 f9be 7470 3e3d ff78 2dbf 9d92 98bd
00000050: 16d3 5b3d cf60 19bf af9f 803d dd2c 26bf
00000060: 4ad2 08bf ea81 67be e951 58bd 5b91 a3be
00000070: eaac 4abe c9c0 90bd 5574 0bbf d781 08bf
00000080: 8ea0 d3bd d415 cbbe d59b 8b3d 8c22 65be
00000090: 6d3f 23bf fde4 14bf 352d 5a3d 2463 fc3d
000000a0: 9317 af3d b936 18bd 994c dfbe 3f13 08be
000000b0: 0c37 0fbf 550a 28bf de48 4c3e a48b 26bf
000000c0: 3bf7 c7be 832e 36bf 9f74 34bf 64e0 13bf
000000d0: 35c9 e8be 24f0 5dbd 55e6 ac3d 0e5f 9abe
000000e0: 6fb5 c2bd c810 febe beb1 f7be dc49 24be
000000f0: 53c0 2bbf 786a 5c3d 64c2 e8be 8013 f83d
00000100: de77 9c3d 8441 a4bd 1f3a 543e 59a5 0b3d
00000110: 0b71 343b e6bb 15bf 57d8 633e 90da 59be
00000120: e6e6 d5bd 0b79 8f3d a09d 083d c1f8 583e
00000130: a852 1fbf 4204 98be 41db 07bf 86f1 43be
00000140: 53ff 223e 6130 043d 997a 29bf 95a1 a3bd
00000150: c0ae 11bf dfa1 20bf ef47 2bbe 2c5b 0dbf
00000160: f28f b13e a077 f8be deb5 6c3e efd4 483d
00000170: ac18 b8be 6ed5 0cbe d7bd f0be 7c10 16bf
00000180: 0bce b33d 2611 90be 0414 04bf b728 f8be
00000190: 1a77 0bbf 2bc2 153e 6e2e 92be a1cb 27be
000001a0: 4c70 cf3d 8319 ab3e bf9a 953e 8689 bb3d
000001b0: 585c 02bf a338 75be 211f 27bf 5d4e 823d
000001c0: d6ee 6abd 2d79 debe 78b9 a5be 6b4e 4cbe
000001d0: 716e ee3d 88d5 37bf f263 0dbe 707f 01bc
000001e0: 4f43 d1be e8a0 e9be ba08 f5be eb5c cbbe
000001f0: eca5 013e 6e16 d1bd 7094 d0bd e1bb b7be
00000200: e45b 3ebe 505b 2f3e bcce ca3e 9ef4 a7bd
00000210: 609a 3abf 2a52 e43b d3ad 3bbe a50b 07bf
00000220: d9cb 07bf 9840 33be 1836 bebd 70d5 e3bd
00000230: 3ce2 febe 5042 b0bd 99a7 ebbe 8251 c03d
00000240: f4b1 7fbe 0454 e3be bc76 2f3d e493 433d
00000250: f2b8 56be 57ad ffbe aece 2a3d 5219 9e3e
00000260: 61e7 c1bd 7124 4b3e 0543 24bf dde8 9ebd
00000270: 46f7 13bf 3c96 d1be e2a1 17bf 6850 823d
00000280: 8c7f b9be 3b01 73be 60b4 99bd 3706 a4be
00000290: 4cab 48be f839 023e fc64 273d b5ef b6be
000002a0: 6134 e13d 7fd9 64bd 1b29 5c3e 883e 84bd
000002b0: 5cb2 debe 3ec8 01bf 5d4b 1b3d 1b20 92be
000002c0: 2001 bd3d 07d9 373e bf8e 8d3e 3f87 003d
000002d0: 06d4 31be 5a77 9c3d d3e0 a3bd 1ccb 1cbf
000002e0: b7f5 73be 21a3 47bd d84e 3abf 17e2 583c
000002f0: 278b c8be 2b59 59be 35fc 5abe 654a 91bc
00000300: a07f 40be 2ad0 17be a309 e3be 5443 71be
00000310: d5c3 b03d c987 503e d799 b9bd 8744 0d3e
00000320: fb06 98bd 7378 22bf ff2e 65bc ec35 d93d
00000330: 1b95 3dbd 6f7a cabd 9b06 c03d 6b1a a53c
00000340: 4801 9fbd 11b0 2dbc f5ca e3be 8ebb be3d
00000350: 8941 a6be 4790 123e aa5f 503e 5e75 453d
00000360: f155 223d 4258 073d 662a 233c 2a54 17bf
00000370: e81a 0cbf 2ec4 13bf aebe fdbc ce25 c13d
00000380: 2700 15bf 566a a3be 5d20 edbe cc38 093e
00000390: 9b12 20bf 69fc 1abe be9f 49be d62f 893d
000003a0: a54e b6bd 7d49 a6be fcc0 00bf dadf 30bf
000003b0: 7372 05be 4acb 1cbf d657 603d 8d59 98be
000003c0: 5e48 413e 43f5 f03b fc2c b2be 74ad 8f3d
000003d0: b49f 03bf 3bdd 8ebd 48f9 15bf a88f ccbc
000003e0: aaed 93be daca 5c3e df64 0ebd 87f7 c43d
000003f0: c4fd 12bf bc5c 7dbe 0e99 173e 9303 20bf
0.05050756 -0.49273297 -0.3608901 -0.43300575 -0.5726907 0.06250909 0.17950833 0.07079712
-0.38201377 -0.65574825 -0.51372606 -0.34103212 -0.38530067 -0.11136862 -0.3517303 -0.0033965819
-0.48774308 0.046493962 -0.6776275 -0.07449839 0.053668104 -0.59913343 0.06280457 -0.64912206
-0.53445876 -0.22608152 -0.05281249 -0.31946835 -0.19792524 -0.07068021 -0.54474384 -0.5332312
-0.10333358 -0.3966509 0.06816832 -0.2237646 -0.63768655 -0.5816191 0.05326577 0.12323597
0.08549418 -0.037161563 -0.43613127 -0.13288592 -0.5594337 -0.65640765 0.19949672 -0.65056825
-0.3905581 -0.7116472 -0.7049045 -0.5776427 -0.4546601 -0.054184094 0.0844237 -0.30150646
-0.09507262 -0.49622178 -0.48377794 -0.160438 -0.6709034 0.053812474 -0.45460808 0.12113094
0.0764005 -0.080203086 0.20725296 0.034093235 0.00275332 -0.58489835 0.22250496 -0.21274781
-0.10444431 0.07005509 0.033353448 0.21188642 -0.622355 -0.29690748 -0.5306893 -0.19135103
0.15917711 0.0322727 -0.66202694 -0.07989804 -0.5690727 -0.62746996 -0.16726659 -0.5521724
0.34680134 -0.48528767 0.23116252 0.049031194 -0.35956323 -0.13753292 -0.47019836 -0.58618903
0.08779534 -0.28138083 -0.5159304 -0.48468563 -0.5447861 0.1462485 -0.28551048 -0.16386272
0.10128841 0.334179 0.29219624 0.0915709 -0.50922155 -0.23947386 -0.65281874 0.06362603
-0.057356678 -0.43451825 -0.32368064 -0.19951789 0.11642159 -0.718102 -0.13807657 -0.007903919
-0.40871665 -0.45630574 -0.4785822 -0.39719328 0.1266095 -0.10209356 -0.10184562 -0.35885528
-0.18589741 0.17124677 0.3961085 -0.08200954 -0.7289181 0.0069678025 -0.18328027 -0.52752143
-0.5304542 -0.1750511 -0.09287661 -0.11124694 -0.49781978 -0.08606398 -0.46026304 0.093905464
-0.24970227 -0.44400036 0.042837843 0.04774846 -0.20968989 -0.49936935 0.04170101 0.30878693
-0.0946796 0.1983812 -0.64164764 -0.07759259 -0.57799184 -0.40934932 -0.5923139 0.063629925
-0.36230123 -0.23730938 -0.07505107 -0.32035992 -0.19596595 0.12717426 0.04086779 -0.35729757
0.109963186 -0.055871483 0.21500055 -0.064572394 -0.43495452 -0.5069617 0.03791367 -0.2854012
0.0922873 0.17953883 0.2764797 0.03137898 -0.17366037 0.07639952 -0.08001866 -0.6124742
-0.23824202 -0.048739556 -0.72776556 0.013237498 -0.39168665 -0.21225421 -0.21385272 -0.01773567
-0.18798685 -0.14825502 -0.4434329 -0.2356084 0.08631102 0.20364298 -0.09062546 0.13795672
-0.074232064 -0.6346504 -0.0139882555 0.10605988 -0.046284776 -0.098866336 0.0937626 0.020154199
-0.07763916 -0.0106010595 -0.4449078 0.09313117 -0.32471874 0.1431285 0.20348993 0.048207633
0.03963274 0.033043154 0.009958839 -0.591128 -0.54728556 -0.5772122 -0.030974712 0.09431039
-0.5820336 -0.31917065 -0.46313754 0.13400573 -0.6252839 -0.1513535 -0.19689843 0.06698577
-0.08901719 -0.32477942 -0.5029447 -0.6909157 -0.1303194 -0.61247694 0.054771267 -0.29755822
0.18875262 0.007353456 -0.34799945 0.070155054 -0.5141556 -0.0697579 -0.585835 -0.024970844
-0.2889226 0.21561757 -0.034764167 0.096175246 -0.57418466 -0.24742407 0.1480448 -0.62505454
