demo/weights/bn-4_1_moving_mean_0.npy (npy, 1104 bytes, 1 tensors)

array f4 [256]
0	0x4025ec60	2.5925522
1	0x3ea070ae	0.31335968
2	0x3fd4cd57	1.6625165
3	0x3ed4dcab	0.41574606
4	0x40993cbe	4.788665
5	0xc038eeda	-2.8895783
6	0x3f3d518f	0.73952574
7	0xbf0dd2cd	-0.5539978
8	0xc0039dbb	-2.056502
9	0xbfb32c23	-1.3997844
10	0xbfe000fb	-1.7500299
11	0xbfc52838	-1.5402899
12	0xbf749c2f	-0.9555082
13	0x400d4e80	2.2079163
14	0xbe67dc76	-0.22642693
15	0xc0637fb8	-3.5546703
16	0x3bb3a585	0.005482378
17	0x4065f052	3.592793
18	0x40102c26	2.2526946
19	0xc035e4a9	-2.8420813
20	0x402aa2dd	2.6661904
21	0xbfa79a89	-1.3094035
22	0x403f92b5	2.9933293
23	0x400d88e1	2.2114794
24	0x3fc4f304	1.5386662
25	0x408b9342	4.361726
26	0xc03e0761	-2.9692004
27	0x3f3ca7f6	0.7369379
28	0xbe6d8af5	-0.23197539
29	0x40c44b60	6.134201
30	0x4081de4e	4.058387
31	0x3fe6c418	1.8028593
32	0x3fe63998	1.7986326
33	0xbfe93718	-1.8219938
34	0x40643c0a	3.5661645
35	0xc00c01d5	-2.1876118
36	0xbfa873e6	-1.3160369
37	0x40d377d2	6.6083765
38	0x3fc221c7	1.5166558
39	0xc0f38513	-7.6099944
40	0xbfc45c50	-1.5340672
41	0x3fb7a7e5	1.4348112
42	0xbfa2b375	-1.2711016
43	0x3d87dc13	0.06633773
44	0x3fc26a74	1.5188737
45	0x3faf90b9	1.3716041
46	0x405b83de	3.4299235
47	0xbfa4d829	-1.2878467
48	0x3fdb86b4	1.7150483
49	0xbccb26c4	-0.024798758
50	0x40afb715	5.491099
51	0x3f128fc0	0.57250595
52	0xbf453ba9	-0.7704416
53	0xbea579d3	-0.32319507
54	0x3fa59592	1.293627
55	0x3f5355fa	0.82553065
56	0x3ea7bb91	0.3276029
57	0x3c32f5c9	0.010922858
58	0xbeab842c	-0.33499277
59	0x40241eca	2.5643792
60	0xbb72e39c	-0.0037061935
61	0xc098e791	-4.7782674
62	0x3fac35f2	1.3453963
63	0x40edad21	7.427384
64	0x410396a3	8.224277
65	0x4032a1c7	2.791124
66	0x401a7752	2.4135327
67	0x40a85ae6	5.261096
68	0xbee4cd80	-0.44688034
69	0xbff8263f	-1.9386672
70	0x3f083c77	0.5321726
71	0xc0324709	-2.7855856
72	0x3edaad92	0.4271055
73	0x4053c004	3.3085947
74	0x3e962250	0.29323053
75	0x4038a72d	2.8852036
76	0x3a71bce4	0.00092215673
77	0x401b364b	2.4251888
78	0xbd904da3	-0.07046058
79	0xbfe8166e	-1.8131845
80	0x4104bb45	8.29572
81	0x400cbcc3	2.199021
82	0xbfc4f03a	-1.5385811
83	0xbfac2879	-1.3449851
84	0xbf2f43ca	-0.6846281
85	0xbfe99c60	-1.8250847
86	0xbe83b77c	-0.25725925
87	0x3feddf64	1.8583798
88	0x4101a9fa	8.103998
89	0x4016b58c	2.3548307
90	0x3f484360	0.78227806
91	0x4006980b	2.10303
92	0x3fe47340	1.7847672
93	0xbe925e3f	-0.2858753
94	0x3f3291e4	0.6975386
95	0xc0040171	-2.062588
96	0x40a9c760	5.305588
97	0x3f95c0f6	1.1699512
98	0xbeb220bf	-0.34790608
99	0x4080f55a	4.02995
100	0xbfceeef6	-1.6166675
101	0xbf14784e	-0.5799607
102	0x404ca1fd	3.197387
103	0x3f127fb0	0.57226086
104	0x40136d6a	2.303553
105	0x4141578e	12.083876
106	0x410b7b21	8.717561
107	0xbfd3e0ff	-1.6553038
108	0xc01aae32	-2.416882
109	0xbed7a591	-0.42118505
110	0xb969e957	-0.00022307537
111	0x40a9f2fc	5.310911
112	0x3e7e6326	0.2484251
113	0xbfb5f1fb	-1.4214472
114	0x4002992c	2.0405989
115	0x402747af	2.6137502
116	0x412c5501	10.770753
117	0x3ef914dc	0.48648727
118	0x3fe8c092	1.8183768
119	0xbfaf84d6	-1.3712413
120	0xbf6ed7fc	-0.93298316
121	0xbfb065f1	-1.378111
122	0x3d68a1fe	0.056795113
123	0xbcc87746	-0.024470937
124	0xc0cbc3d7	-6.367656
125	0xc08bb476	-4.365779
126	0xbe1592df	-0.14606808
127	0x3fc431ef	1.5327739
128	0x40011a31	2.0172236
129	0x4041918f	3.0245092
130	0xc0d7352a	-6.7252398
131	0x3f96a3c0	1.1768723
132	0xb916b6b4	-0.00014373177
133	0x3f909918	1.129672
134	0xc0a26bdc	-5.0756664
135	0xbf39e61b	-0.7261674
136	0xc00429d4	-2.065053
137	0xc03e2b3c	-2.9713888
138	0xc05b1f47	-3.423784
139	0xc019fa4c	-2.405902
140	0xc04ddbac	-3.2165327
141	0xc0840b5e	-4.1263876
142	0xbe343c8b	-0.1760122
143	0x40f8bb94	7.7728977
144	0xbfe83f08	-1.8144236
145	0x3f1b9ab6	0.60782945
146	0xc0758001	-3.8359377
147	0xc09a40b2	-4.8203974
148	0xbfdc9ebf	-1.7235945
149	0x3ebe7e0d	0.37205544
150	0xc0d08dfa	-6.517331
151	0xbf931c31	-1.1492978
152	0x40ad1d92	5.4098597
153	0xc124228f	-10.258437
154	0x3ffb5bdd	1.963741
155	0xc01f44ef	-2.4885824
156	0xbef48c38	-0.47763228
157	0x400ea358	2.2287197
158	0x3fd28309	1.6446239
159	0x3ece0ce9	0.40244225
160	0xbfb7b211	-1.4351217
161	0x3f32563a	0.6966282
162	0xbffee11b	-1.9912447
163	0xbefcfb47	-0.4941046
164	0xbfc748ee	-1.5569131
165	0x40e9e776	7.3095045
166	0xc02da32c	-2.7130842
167	0xbf22ae71	-0.63547426
168	0x40473fe7	3.1132753
169	0xc021cf72	-2.5282865
170	0x409b76cc	4.8582516
171	0x3ff23ba0	1.8924446
172	0x3e783fc3	0.24243073
173	0xbf9e42ef	-1.2364177
174	0x4022cbf7	2.543699
175	0x3f9e297b	1.2356409
176	0x40f839d0	7.757057
177	0x40d15479	6.5415616
178	0x401f5166	2.4893432
179	0xbed86980	-0.4226799
180	0xc01ac624	-2.4183435
181	0xbd8e8511	-0.06958974
182	0x400f2525	2.2366421
183	0x40ae0672	5.438287
184	0xbffd29cc	-1.977838
185	0xbed804e6	-0.42191237
186	0xbfc25fa8	-1.5185442
187	0x3f326b56	0.6969503
188	0x3fbe2983	1.4856418
189	0x4074b66d	3.8236344
190	0xbd78ac3a	-0.060711123
191	0xc05508b2	-3.3286557
192	0xbf483ed6	-0.7822088
193	0xc08888e1	-4.266709
194	0xc01af055	-2.4209187
195	0x3eb5545d	0.35415927
196	0xbffb07fe	-1.9611814
197	0xc09a4955	-4.8214517
198	0xbfee6fe2	-1.8627894
199	0x4079b8e3	3.9019096
200	0x40d59fc3	6.675752
201	0xbd339af4	-0.043848947
202	0xc0b49264	-5.64287
203	0xc0437d63	-3.054528
204	0x400b2eed	2.1747391
205	0xc06c6457	-3.6936243
206	0xc00d137c	-2.2043142
207	0x3f3c2e76	0.73508394
208	0x3f7b08c5	0.98060256
209	0xbff24b29	-1.8929187
210	0x3f9b7234	1.2144227
211	0x3e5061fc	0.20349878
212	0xbf456a49	-0.77115303
213	0xc11a4c2d	-9.643598
214	0x40f5b728	7.678608
215	0xc0213223	-2.518685
216	0xc0b0e834	-5.528345
217	0xc06528b6	-3.5806098
218	0xbf7eab85	-0.9948047
219	0x401e17d1	2.4702036
220	0xbeb411d7	-0.3516986
221	0x402ed256	2.731588
222	0xc03095a1	-2.7591326
223	0x406b299e	3.674415
224	0x400a633a	2.1623063
225	0xbf8b0133	-1.0859741
226	0x408e2724	4.442278
227	0xc0d07479	-6.514218
228	0xbe8e0e53	-0.27745304
229	0xbf7a5e64	-0.9780028
230	0x3e936028	0.287843
231	0xc13acade	-11.674528
232	0x3f808bc6	1.0042655
233	0x40099793	2.1498764
234	0x3fb72803	1.4309086
235	0xbfdd9989	-1.731248
236	0xbf59469a	-0.84873354
237	0x40025842	2.0366368
238	0xc022875f	-2.5395124
239	0xbfa1c82d	-1.2639214
240	0xc0f753d1	-7.7289815
241	0x4089b5ad	4.303427
242	0xbf08fb95	-0.53508884
243	0xbfa8e995	-1.3196284
244	0xbbc9efae	-0.0061626052
245	0xbeb6e453	-0.35721073
246	0x408c2d09	4.3804975
247	0xbf28d83c	-0.6595495
248	0xc0200488	-2.5002766
249	0x402bb11b	2.6826847
250	0x3f1f6efe	0.62278736
251	0x3fb9194a	1.4460843
252	0x3f0da97d	0.55336744
253	0x3f0665c4	0.5249903
254	0x40999fbe	4.80075
255	0xbff1073c	-1.8830333
