demo/weights/bn-4_3_moving_mean_0.npy (npy, 1104 bytes, 1 tensors)

array f4 [256]
00000000: 9758 a240 ba47 1940 37ab c8bf 7973 1b40
00000010: 20ed b7be 76f5 303f fbea d13e faf9 8f3e
00000020: 8b2e ac3f 0ec2 fa3f bd1e 3940 8c79 9a40
00000030: 771a 2940 df93 1440 41c5 7740 9c02 be3f
00000040: dc5c 14c0 259d 3b3e a03f 26c0 91d7 46bf
00000050: ba44 3b40 40fa a6bf 014c 9740 383c f0ba
00000060: 2814 adc0 4f0d 6040 fbf6 6a40 0871 453d
00000070: 6b2f a3be 36e7 d1bd 353c 9e40 fb1e 6d40
00000080: 0731 babf 6503 fcbe 321e 043d b3cc 18c0
00000090: 64db 0ebf bb77 b7c0 8620 1040 cced d93f
000000a0: e85f 85bf fcd7 db40 4fab 47bf 0699 5cc0
000000b0: bf91 6dc0 7c4d cfbf e67b a23e 6155 d73f
000000c0: 7dda d640 497f 8ec0 96d5 e040 b394 5e40
000000d0: 7009 48be a4fc 91c0 c11b e93f 0e36 85bf
000000e0: 6ea0 81be 18fa 2340 19ee 9a3f 96f8 0ac0
000000f0: cf9c 18bc 02c4 303f f0a1 69bf 5393 ec3d
00000100: 351a d23f 839a 353e 27a2 aac0 dc13 17be
00000110: 5624 9340 bce0 90c0 51ca 313f 183c 03bf
00000120: 312a 8a40 812b 0e40 e002 14c0 2704 acbf
00000130: d652 a640 6926 47bc 723e 3f40 e04a 55bf
00000140: 51e5 e8bf 769f 40c0 5ad5 7940 60c2 ae3f
00000150: 1f40 60bf cd4d 2e40 e847 81c0 e630 ccc0
00000160: 9e6f 60bf 8eff 82bf 5d7c 9fbf 56d6 1540
00000170: 8630 0040 19b4 acbe 2955 dbbe d61d 77c0
00000180: 6de3 c6c0 2f7d 023f 5729 aa3e 189a b6c0
00000190: 28ed 8e40 ba66 afbf 188d a2bf 9bba ac40
000001a0: 53d0 8abe a30d e8be e228 703f c097 1e40
000001b0: 6952 e23f 0062 93be c4d9 f9bf e6b1 363d
000001c0: fc0c 0440 edb7 5e40 3223 59be ec72 4340
000001d0: c2d9 0041 c78a d240 ccba a940 b929 69bf
000001e0: 9c82 8640 21fd 8140 7123 79c0 5cd1 ebbf
000001f0: f35f eb3f 105b 27c0 4e4e 7cc0 d97e 8bbe
00000200: cc98 3abf 1661 0f40 bb88 d0c0 041f 1340
00000210: afba 2ebe 339b 1241 f4af ec3f d49f b0c0
00000220: 5600 ec3f 404d 17c0 0891 de3f 000f 3d3e
00000230: c648 bcbf 591a cdbf 2067 1440 2e95 13c0
00000240: 4bb8 8bc0 a440 b740 f3f6 0b3e 39fd 42bf
00000250: 0d55 2f40 9cff 1a3f 7b6c eb40 a25f 2a3f
00000260: ec74 c53f 4a58 0b3f a6c3 dd3f 2144 6c40
00000270: f81b 88bf e534 9e40 dd7a 3a40 e4a3 37c0
00000280: b255 c23f 6ac1 c4c0 ee5c 56be d655 1640
00000290: 6021 9840 c65f 8fc0 2b95 83be 80fe d13f
000002a0: 1881 65c0 bc44 53bf 9177 fcbf cce7 bbbf
000002b0: ebdb 3bbf 4e2d 29be ab37 5fc0 cb27 67bf
000002c0: f60e ac3f 22fa 67c0 6203 1f40 94e9 4840
000002d0: 49a4 aabf 8911 3040 68cc 23c0 5ffb 673f
000002e0: 9046 97c0 295a 81bf 4a63 3340 c540 903b
000002f0: ab7d 2240 5d57 49c0 12aa 4f40 249b 8040
00000300: 8075 0cc0 1ee6 c03f fb1f cf3f 51de c8be
00000310: cb41 973f f0c1 0940 3afb 44c0 a21c e0bf
00000320: 28a2 83c0 4e2a 93be ae18 c940 3fbb dcbf
00000330: 88a8 b8be 4ce9 34c0 be3c 09c0 b6e6 d8c0
00000340: b262 1a40 9b1b 853f b5fd 60bf 63ad 223f
00000350: 11a4 a740 9cc5 5940 a953 6140 3911 6cc0
00000360: 3a91 98c0 8ab8 b040 d3dd cfc0 003d 86c0
00000370: a267 ce3d 0ee4 20c1 226b 9cc0 ae42 25c0
00000380: ffa1 cbbe 121e 3ac0 9a7f 02c0 e5bd 25bf
00000390: 6749 5840 788d dbbf 9d9c 1d40 c3a1 5dc0
000003a0: 9359 aa40 a926 77bf 26ca cfbf 69de f3bd
000003b0: 9d35 a440 ce88 0ac0 affb d4be ea33 8740
000003c0: 5451 4a40 bdc9 8a40 6f8e e43f 845f f13b
000003d0: 6bd0 a0bf ff7a 8bc0 38b7 19c0 b7ad 6fbf
000003e0: b772 f8bf 1032 24c1 e53d 5240 9ca6 603f
000003f0: a9c4 f1c0 9e3b 983f bc70 21c0 96c4 efbf
5.073314 2.3950028 -1.5677251 2.428923 -0.359231 0.69124544 0.40999588 0.28120404
1.3451704 1.9590471 2.892501 4.8273373 2.6422403 2.3215253 3.8714144 1.4844546
-2.3181677 0.18321665 -2.5976334 -0.7767268 2.9260697 -1.304512 4.728028 -0.0018328493
-5.4087105 3.5008123 3.6713245 0.048203498 -0.31872115 -0.10249178 4.9448495 3.705016
-1.4546212 -0.4922134 0.03225536 -2.3874938 -0.55803514 -5.7333655 2.251985 1.7025695
-1.0419893 6.8701153 -0.7799577 -3.4468398 -3.7120206 -1.6195521 0.31735152 1.682293
6.714171 -4.4530377 7.0260725 3.4778259 -0.1953485 -4.56209 1.8211595 -1.0407121
-0.2531771 2.5621395 1.2103912 -2.1714225 -0.00931473 0.69049084 -0.9126272 0.11551537
1.6414248 0.17734723 -5.332294 -0.1475367 4.5981855 -4.5274334 0.69449335 -0.5126357
4.3176503 2.2214053 -2.3126755 -1.3438767 5.197612 -0.012155154 2.9881864 -0.83317375
-1.8194982 -3.0097327 3.903647 1.3653069 -0.8759784 2.7234986 -4.0400276 -6.380969
-0.87670314 -1.0234239 -1.2459828 2.341207 2.0029616 -0.33731154 -0.4283841 -3.861196
-6.215262 0.50972265 0.33234665 -5.7063103 4.4664497 -1.3703225 -1.2699308 5.397779
-0.27112064 -0.45322904 0.9381238 2.478012 1.76814 -0.28785706 -1.9519582 0.04460325
2.0632925 3.479976 -0.21204832 3.0538893 8.053164 6.5794406 5.3040524 -0.9107929
4.2034435 4.0621495 -3.8927882 -1.8423266 1.8388656 -2.614933 -3.9422793 -0.27245215
-0.728894 2.2403007 -6.5166907 2.298768 -0.17063402 9.16289 1.8491197 -5.5195103
1.8437603 -2.36409 1.738801 0.18462753 -1.4709709 -1.6023666 2.3187943 -2.3059802
-4.3662467 5.7266407 0.13668422 -0.7616764 2.739566 0.6054628 7.3569922 0.66552174
1.5426307 0.54431593 1.7325332 3.6916583 -1.0633535 4.943957 2.913749 -2.869378
1.5182402 -6.14861 -0.20933887 2.348989 4.754074 -4.480441 -0.25699744 1.6405792
-3.5860043 -0.82526755 -1.9723989 -1.4680114 -0.73382443 -0.16521189 -3.4877727 -0.90295094
1.3442066 -3.624642 2.4845815 3.1392565 -1.3331386 2.7510703 -2.559351 0.90617937
-4.7273636 -1.010564 2.8029351 0.0044022524 2.5389202 -3.1459572 3.2447553 4.018938
-2.1946716 1.5070226 1.6181635 -0.39232114 1.1816953 2.152462 -3.0778337 -1.7508738
-4.1135445 -0.28743213 6.2842627 -1.7244643 -0.3606608 -2.8267393 -2.1443324 -6.778163
2.412274 1.039905 -0.87887126 0.6354582 5.2387776 3.402686 3.5207312 -3.6885512
-4.767728 5.5225267 -6.495828 -4.1949463 0.1007836 -10.055677 -4.8880777 -2.5821948
-0.3977203 -2.9080853 -2.0390382 -0.6474288 3.3794801 -1.7152548 2.462684 -3.4629982
5.3234344 -0.96543366 -1.6233566 -0.11907656 5.1315446 -2.1646 -0.4159827 4.225087
3.1612139 4.3371263 1.7855967 0.0073661227 -1.2563604 -4.358764 -2.4018078 -0.9362444
-1.9410008 -10.262222 3.2850277 0.87754226 -7.5552564 1.1893194 -2.5225058 -1.8731868
