demo/weights/bn-4_2_moving_mean_0.npy (npy, 1104 bytes, 1 tensors)

array f4 [256]
0.5493245 2.4678807 -1.2234097 -1.9959822 1.2537247 0.7375664 0.15482025 -2.3339458
-0.2313307 1.2682278 -2.0141292 -2.1934814 2.8686388 -1.1956483 0.17813815 -1.0105358
0.35879236 0.55821437 -3.7671442 -0.49537367 1.910289 -1.0078696 2.0790474 0.565413
0.17276005 0.17909664 1.5726662 1.8445995 -0.16228053 2.084765 -0.25731078 -1.5765047
1.3827989 -3.2053611 0.16905464 1.1850137 0.2482096 1.1667831 0.19012497 1.8849128
2.0268583 -2.5489995 -3.8584847 -0.6545952 2.8638544 0.7916487 -2.446328 -3.9902124
4.732599 -0.9585478 2.2567399 3.2511916 -2.3695493 -6.941799 2.7538798 -2.2472334
0.11750967 -1.7235514 2.681529 7.3831377 0.42297545 -1.9371765 4.2585154 -2.0032752
-3.4209957 -0.6842467 -1.1593982 0.918638 -1.9881852 -0.5540774 -0.90384674 0.16066286
2.177009 -5.52069 6.707715 -6.7751245 -0.09937503 -3.2167037 2.4099822 -0.3976838
-3.483129 -5.1185794 0.64053 3.4462237 -1.0776262 0.6959277 -2.862293 -2.208065
-0.82733023 -4.6472816 3.235148 -4.298273 1.4102956 -0.6177342 -5.140322 0.40868613
-0.5334683 3.4036796 -1.167476 -1.5170852 -2.3232343 1.980422 9.819334 -0.60152656
0.08878647 -0.50062454 -4.1918435 0.25804126 0.008872813 -6.068189 -1.1752068 -0.27768326
-2.8499622 -2.027732 -3.1472356 -3.0296495 3.7590964 1.5560601 -6.6715403 -2.7723444
-1.7037872 -0.69074094 -2.106276 0.3405093 0.18534409 -0.867929 -0.72557384 0.9434365
0.3551446 -0.6184426 -6.331111 -2.0107589 -3.3910747 0.2819928 -1.1791912 1.1487275
1.6923527 0.94874746 -0.71784353 -6.090103 -3.8033478 -1.2247273 1.831901 1.0487968
-2.0850875 -1.560474 -0.4436562 -2.8140678 -4.684915 -0.010860037 -0.34991893 -0.51895285
-1.1065059 -3.9033499 -1.505459 0.35261548 3.0650985 -1.9168941 -1.1607541 1.4193075
-3.871365 0.22760375 0.7069888 -0.68586224 -1.808351 -1.7933037 -1.083973 -0.06519556
-0.79602814 1.694608 3.6646745 -5.8806615 -3.8475115 2.1584566 0.32268032 3.1627345
2.5733633 -5.6208053 -2.4755642 -9.049545 -0.2995788 -0.14112082 -2.0113122 2.5796955
-1.7221403 -1.1643013 -0.15459687 0.9239677 0.36259815 -0.83651125 2.8223782 -0.27306074
-2.3849976 -1.8907803 0.44311503 1.0584757 -4.786713 0.14649163 -1.1481514 -1.3189721
-0.6103341 -0.22709031 -1.1259466 1.7719344 1.3949233 -3.648606 -1.0728093 0.07007537
-2.3063192 -1.9333507 0.90574414 2.090894 1.925912 0.904714 -0.69480556 4.232352
-0.84085053 -4.6489153 0.15415426 -8.420432 2.2356427 -4.9384165 2.1264596 1.7904359
2.2337956 -1.8376263 -1.2232758 -5.1103187 -2.0467362 -0.58288103 1.9100629 -3.4849324
1.0244012 4.412245 1.0653498 -3.0185573 -2.3387887 -0.14554968 -2.7784734 -1.6991521
-2.4796636 0.28560594 -1.7591591 -3.608981 -2.0106404 -2.8940928 1.747523 -0.627818
0.17862855 -4.661856 2.7550857 -1.6815951 -1.1188388 1.7626143 -2.8503594 -0.94441766
00000000: 88a0 0c3f c2f1 1d40 b098 9cbf 587c ffbf
00000010: 0d7a a03f 27d1 3c3f 3389 1e3e 5e5f 15c0
00000020: f4e1 6cbe 4a55 a23f 7ee7 00c0 0062 0cc0
00000030: c797 3740 010b 99bf d969 363e 3d59 81bf
00000040: a2b3 b73e 23e7 0e3f e418 71c0 9ea1 fdbe
00000050: 5a84 f43f df01 81bf 1d0f 0540 e8be 103f
00000060: 03e8 303e 1c65 373e 204d c93f d61b ec3f
00000070: de2c 26be ca6c 0540 3dbe 83be e8ca c9bf
00000080: 8eff b03f a324 4dc0 a91c 2d3e 87ae 973f
00000090: a82a 7e3e 2659 953f 1fb0 423e d344 f13f
000000a0: 0cb8 0140 cf22 23c0 6af1 76c0 8d93 27bf
000000b0: 6449 3740 7da9 4a3f a390 1cc0 a45f 7fc0
000000c0: 7371 9740 6363 75bf 6d6e 1040 8613 5040
000000d0: b2a6 17c0 3823 dec0 913f 3040 acd2 0fc0
000000e0: e9a8 f03d 559d dcbf 2c9e 2b40 aa42 ec40
000000f0: 3d90 d83e 66f5 f7bf c245 8840 a935 00c0
00000100: 98f1 5ac0 cb2a 2fbf 2967 94bf dc2b 6b3f
00000110: da7c febf 04d8 0dbf 8062 67bf ce84 243e
00000120: 1e54 0b40 7ea9 b0c0 9aa5 d640 d2cd d8c0
00000130: 2385 cbbd 79de 4dc0 263d 1a40 369d cbbe
00000140: 96eb 5ec0 67cb a3c0 c6f9 233f ee8e 5c40
00000150: a8ef 89bf 5128 323f cf2f 37c0 f050 0dc0
00000160: eacb 53bf 88b6 94c0 aa0c 4f40 748b 89c0
00000170: 9184 b43f d423 1ebf 857d a4c0 4f3f d13e
00000180: 6191 08bf e3d5 5940 db6f 95bf d92f c2bf
00000190: dfaf 14c0 787e fd3f fe1b 1d41 a5fd 19bf
000001a0: aed5 b53d ee28 00bf 9523 86c0 fc1d 843e
000001b0: 465f 113c 9b2e c2c0 2d6d 96bf 802c 8ebe
000001c0: c865 36c0 5cc6 01c0 4f6c 49c0 c7e5 41c0
000001d0: 0995 7040 fa2c c73f 427d d5c0 176e 31c0
000001e0: b315 dabf 66d4 30bf 3acd 06c0 3c57 ae3e
000001f0: d7ca 3d3e 9830 5ebf 35bf 39bf 0e85 713f
00000200: 83d5 b53e 4152 1ebf 7698 cac0 46b0 00c0
00000210: 5e07 59c0 5c61 903e bdef 96bf 8109 933f
00000220: 039f d83f 1de1 723f 98c4 37bf 20e2 c2c0
00000230: 0d6a 73c0 ddc3 9cbf bb7b ea3f f93e 863f
00000240: 1372 05c0 9dbd c7bf e826 e3be b019 34c0
00000250: d3ea 95c0 4cee 31bc 9328 b3be 18da 04bf
00000260: fca1 8dbf 7cd0 79c0 e1b2 c0bf 048a b43e
00000270: 932a 4440 c95c f5bf 9793 94bf deab b53f
00000280: 72c4 77c0 f510 693e 38fd 343f ab94 2fbf
00000290: 0c78 e7bf fa8a e5bf a1bf 8abf 4085 85bd
000002a0: 80c8 4bbf eae8 d83f 078a 6a40 612e bcc0
000002b0: a13d 76c0 2724 0a40 5b36 a53e 3e6a 4a40
000002c0: fcb1 2440 a3dd b3c0 a56f 1ec0 f0ca 10c1
000002d0: 6462 99be fa81 10be 57b9 00c0 bb19 2540
000002e0: 186f dcbf d307 95bf a44e 1ebe 2689 6c3f
000002f0: 77a6 b93e 9a25 56bf d8a1 3440 9ece 8bbe
00000300: cda3 18c0 1705 f2bf f9df e23e 227c 873f
00000310: c12c 99c0 e701 163e a0f6 92bf 14d4 a8bf
00000320: db3e 1cbf 5d8a 68be 051f 90bf bfce e23f
00000330: d98c b23f c382 69c0 d151 89bf ad83 8f3d
00000340: bc9a 13c0 0978 f7bf d9de 673f 35d1 0540
00000350: 4984 f63f 569b 673f c7de 31bf 6d6f 8740
00000360: fb41 57bf eac3 94c0 9dda 1d3e 17ba 06c1
00000370: c514 0f40 8207 9ec0 ea17 0840 012d e53f
00000380: 82f6 0e40 5737 ebbf 4d94 9cbf bb87 a3c0
00000390: bafd 02c0 b137 15bf f17c f43f 2209 5fc0
000003a0: 941f 833f 1c31 8d40 625d 883f 0b30 41c0
000003b0: b7ae 15c0 fa0a 15be 82d2 31c0 d17d d9bf
000003c0: cfb2 1ec0 f13a 923e 202c e1bf 8bf9 66c0
000003d0: 55ae 00c0 d138 39c0 d5ae df3f aeb8 20bf
000003e0: 67ea 363e ed2d 95c0 5353 3040 823e d7bf
000003f0: 1c36 8fbf 589d e13f 4a6c 36c0 5bc5 71bf
