demo/weights/bn-ori_3_1_moving_mean_0.npy (npy, 592 bytes, 1 tensors)

array f4 [128]
000000 e2 47 e7 be e7 cb 2b 3e 09 92 28 3d 03 35 30 bc
       -0.4517203 0.16777001 0.041154895 -0.0107548265
000010 50 4a e2 3c 82 b5 aa 3d 10 d0 0f bf ed 4a 93 be
       0.027623326 0.08335401 -0.56176853 -0.287681
000020 79 cf 19 bf 14 a9 86 be 58 2c 9d be e6 cf 6e be
       -0.60082203 -0.2630087 -0.30697894 -0.23321494
000030 ab 56 33 bf 80 a8 e9 3b 77 61 06 be 87 44 13 bf
       -0.7005412 0.0071306825 -0.13123117 -0.5752644
000040 7d 1c 4a be 8a 21 55 be 98 81 b9 be 14 8b 6e be
       -0.1973743 -0.20813575 -0.36231685 -0.23295242
000050 75 3f 1d bf 8e 02 95 bd 6a f7 fc be 3c 31 ef be
       -0.6142495 -0.07275878 -0.49407512 -0.4671725
000060 e0 9b d9 3d 6e 5a 84 3e 72 93 18 3c d6 4c 95 bd
       0.10625434 0.25850242 0.009312497 -0.07290046
000070 d5 75 47 be 74 ac 99 3d eb 31 ab bd bd ad b9 be
       -0.19478543 0.07503596 -0.083591305 -0.36265364
000080 86 d6 aa be 0b a5 47 3d 68 5e e3 be 4f 2e d5 be
       -0.33366793 0.04874138 -0.44407964 -0.41636893
000090 21 88 cc bd a7 c8 0f bc 66 3d 17 bd 1a 93 25 3d
       -0.09986902 -0.008775867 -0.03692379 0.04042349
0000a0 a9 e2 24 bf 33 4c cd 3d 3e 6d 89 bc 9c 31 ce bd
       -0.64408356 0.100242995 -0.016775724 -0.10068056
0000b0 27 86 b9 be ac e6 fd be 60 16 af bd 00 66 98 3e
       -0.36235163 -0.4959005 -0.085491896 0.2976532
0000c0 ec 29 e6 3b e8 be ba be 58 5d b5 be 75 cc f5 bd
       0.0070240404 -0.36473775 -0.35422778 -0.12001888
0000d0 2c 92 34 3e 62 12 10 bf 96 7b 59 be f7 6b dc be
       0.17633885 -0.5627805 -0.2123855 -0.4305112
0000e0 5e 37 2b be 18 f4 f2 39 1a 61 23 bf ff db 44 be
       -0.1672034 0.000463397 -0.6382004 -0.19224547
0000f0 f6 8c d5 3d 6f 10 5c 3c 3b 03 7b bd a6 df 0f bf
       0.10427277 0.013431652 -0.061282378 -0.56200635
000100 1e 07 e9 be 0f f5 53 3e 7d 0c a1 be 29 82 af 3d
       -0.45513242 0.20698951 -0.3145484 0.08569748
000110 c3 b4 32 be 36 13 2f bf f5 31 ff be 1f 6b 80 bf
       -0.17451768 -0.6838869 -0.49842802 -1.0032691
000120 94 9b fd be 8b 42 13 bf 9a 01 eb be 3f 28 80 be
       -0.4953276 -0.5752341 -0.4589966 -0.25030705
000130 b1 85 8d 3e 4a cd 17 bf 47 40 76 3e 86 fc f7 bd
       0.2764106 -0.5929762 0.24047957 -0.12108712
000140 f0 9d e6 be ff f2 5f 3d 09 ef 06 bc b2 6c 5f be
       -0.45042372 0.0546751 -0.008235701 -0.21818808
000150 f0 78 99 bd 85 2a 2c 3e b9 64 fb bc b0 9c c0 bd
       -0.0749377 0.16813095 -0.030687677 -0.09404886
000160 f8 3c 70 be f0 92 0b bf ea 4f eb bd 30 8f 19 3e
       -0.23460758 -0.54521084 -0.11489852 0.14996028
000170 09 83 d9 be 99 c6 45 3c aa f3 6a be 58 85 37 bd
       -0.42482784 0.012071275 -0.22944513 -0.0448049
000180 ac e4 91 bc 86 c4 26 bc 47 8b 80 bc 73 c6 8a bd
       -0.017809235 -0.010178691 -0.015691413 -0.067761324
000190 c4 bd 92 be 25 41 ca 3d e8 f3 54 3e 16 9a a8 3d
       -0.28660405 0.098757066 0.20796168 0.082325146
0001a0 8b b0 15 3e 32 3d 3f 3e 4f ee e6 bd c5 40 26 3e
       0.14618127 0.18675688 -0.112759225 0.16235645
0001b0 35 9b ab 3c 4c 01 dd be d5 21 0c bf 53 37 93 3e
       0.020948032 -0.43165052 -0.54739124 0.28753147
0001c0 75 bc cf 3c 38 6a c1 be e2 8b 1f be 18 81 00 bf
       0.025358418 -0.3777635 -0.15580705 -0.5019698
0001d0 0a d4 9f be 5a d4 af bc e5 90 db be 14 33 f7 be
       -0.3121646 -0.021463562 -0.42883983 -0.48281157
0001e0 74 7c cc be d4 78 95 be 98 64 1a be d7 3e 8c 3e
       -0.399387 -0.29193747 -0.15077436 0.27391693
0001f0 ec fa ce be 66 11 af be 3e 2f 1b be 86 5b 02 bf
       -0.40425813 -0.3419296 -0.1515474 -0.50920904
