demo/weights/bn-ori_1_1_beta_0.npy (npy, 592 bytes, 1 tensors)

array f4 [128]
0	0xbe51fd4e	-0.20506784
1	0xbc7be99c	-0.015375521
2	0xbe72fcf3	-0.23729305
3	0xbe871874	-0.26385844
4	0x3e086e80	0.13323402
5	0x3e0341f5	0.1281813
6	0x3cb08acf	0.021550564
7	0x3de944d9	0.11390085
8	0xbdebc51b	-0.11512204
9	0xbe1ceaf2	-0.15324
10	0xbe57e872	-0.21084765
11	0xbe971bec	-0.2951349
12	0xbe70c288	-0.23511708
13	0xbe439508	-0.1909982
14	0xbe7b99d2	-0.24570397
15	0xbe8b1102	-0.27161413
16	0xbe25f381	-0.1620617
17	0x3c45b6bf	0.012067496
18	0x3e26bb62	0.16282418
19	0xbd9ad807	-0.07560735
20	0x3ca0fd6b	0.01965209
21	0x3d0c30c8	0.03422621
22	0xbd9e548e	-0.07730971
23	0x3e17b671	0.1481569
24	0xbca0dc79	-0.01963638
25	0xbdbad5e5	-0.091228284
26	0x3c4fb4c5	0.012677376
27	0x3c5c2bf0	0.01343821
28	0xbe018b02	-0.12650684
29	0xbe1203a2	-0.14259198
30	0xbdaa21d5	-0.08307234
31	0xbe3cc7dd	-0.18435617
32	0xbd086319	-0.033297632
33	0x3db66d32	0.08907546
34	0x3df833f3	0.121192835
35	0xbd4e79f1	-0.05040926
36	0x3de8d9e7	0.113696866
37	0x3cc91ecf	0.024550823
38	0xbdefa4d5	-0.11701361
39	0xbde4ce6d	-0.11172185
40	0x3e16ecfe	0.14738843
41	0xbe18442c	-0.14869756
42	0xbe6f37ae	-0.23361084
43	0xbe4688aa	-0.1938807
44	0x3d3d7e55	0.046263058
45	0x3caa1978	0.020764098
46	0x3d633823	0.055473458
47	0xbe08f416	-0.13374361
48	0xbe42d66c	-0.19027108
49	0xbd8e97fb	-0.06962582
50	0xbd7c11da	-0.061540462
51	0xbe95bed9	-0.29247168
52	0xbc02f47a	-0.007992858
53	0xbcc43039	-0.023948776
54	0xbc89c356	-0.016816776
55	0xbd4a1e51	-0.04934532
56	0xbd449629	-0.047994766
57	0x3d63b97a	0.055596806
58	0xbe16cde0	-0.14726973
59	0xbe3c1318	-0.18366659
60	0x3dc4f425	0.096168794
61	0xbe956644	-0.29179585
62	0xbead58f9	-0.33856943
63	0xbe2ac158	-0.16675317
64	0x3a8b440e	0.001062514
65	0x3d9f4645	0.07777075
66	0xbc092e3f	-0.008372842
67	0xbe344f38	-0.17608345
68	0xbdf676c2	-0.1203437
69	0x3d83802b	0.064209305
70	0xbcc8c268	-0.024506763
71	0x3c10c66c	0.00883637
72	0x3d83d7a1	0.06437612
73	0xbdbfca82	-0.09364797
74	0xbe8148dc	-0.252509
75	0x3c326c38	0.010890059
76	0xbdf966bf	-0.121778004
77	0xbebaaa58	-0.36458087
78	0x3e5043ac	0.20338315
79	0x3d8d8ee3	0.06912019
80	0x3d8a25b3	0.06745472
81	0xbe24b095	-0.16082986
82	0x3d28245a	0.041050293
83	0xbe081dfe	-0.13292691
84	0xbb8cd0f3	-0.0042973696
85	0x3d27e0fd	0.04098605
86	0xbd494798	-0.049140543
87	0xbea139e5	-0.31489483
88	0x3e021208	0.12702191
89	0xbe3e9cf9	-0.18614568
90	0x3e492b8a	0.19645515
91	0xbe64f0c5	-0.22357471
92	0x3be2c134	0.0069200043
93	0xbdd50640	-0.10401583
94	0xbd78e8a2	-0.06076873
95	0xbe1dc9d7	-0.15409027
96	0x3e2e9cc8	0.17051995
97	0xbe26bc9f	-0.1628289
98	0x3e49338e	0.19648573
99	0x3e0dacbd	0.13835426
100	0xbe1b19c3	-0.15146546
101	0x3c8cc4b5	0.017183641
102	0xbe148529	-0.14503922
103	0xbdc51d69	-0.0962475
104	0x3bf0c4d4	0.0073476825
105	0xbd0c9a5b	-0.034326892
106	0xbc461cc6	-0.012091821
107	0xbe4f6010	-0.20251489
108	0xbe73dd65	-0.23814924
109	0xbd8b2ff6	-0.06796257
110	0x3dac5c69	0.08416063
111	0x3da5ac67	0.08089524
112	0x3c9c33e8	0.01906772
113	0xbd9af0b7	-0.07565444
114	0x3d6a5586	0.057210468
115	0xbca99bb3	-0.020704126
116	0xbd0e2d90	-0.03471142
117	0xbd821fb7	-0.063537054
118	0xbe889dab	-0.2668279
119	0xbdb9d2f2	-0.09073438
120	0xbe6f1b2e	-0.23350212
121	0xbe9ce7ac	-0.30645502
122	0x3d12a989	0.035806213
123	0xbea3049b	-0.3183945
124	0x3d6eb435	0.058277328
125	0xbe533cb6	-0.20628628
126	0x3d8aec5b	0.067833625
127	0xbe5b6244	-0.21424204
