demo/weights/bn-ori_2_1_beta_0.npy (npy, 592 bytes, 1 tensors)

array f4 [128]
000000 4e 19 0f 3e da aa d0 3d 03 fa 93 3d 50 30 d1 3d
       0.13974497 0.10188837 0.0722542 0.10214293
000010 22 c6 7a be c6 03 2e bd ec 2d 02 be d3 40 a7 bd
       -0.24489644 -0.042484067 -0.1271283 -0.08166661
000020 8c f9 05 be 2a 42 3c be 3e 9d 54 bd fc 5d 14 3e
       -0.13083476 -0.18384615 -0.05190777 0.14488977
000030 1d af 0a 3e 4d b8 10 3d 29 c4 c1 bd cd 71 28 be
       0.13543363 0.035332013 -0.09461243 -0.16449662
000040 57 cf 16 3d d2 c2 71 bd 65 a9 bb be 43 99 50 be
       0.03681883 -0.059023686 -0.36652675 -0.20370965
000050 42 70 83 3a ed 39 30 3e 95 b7 e4 bd be 37 00 bd
       0.0010027962 0.17209597 -0.11167828 -0.03130316
000060 46 de 1c 3c 98 4b 5f 3e d7 ec 5c be 33 e0 ef 3d
       0.0095744785 0.2180618 -0.21574722 0.117126845
000070 f2 63 db bc 18 52 04 be bf 62 8b bc db eb 13 bd
       -0.026781056 -0.12921941 -0.01701486 -0.0361136
000080 1e 55 ca bd 1c d2 84 bd b8 5c 02 be fe 41 15 bd
       -0.09879516 -0.06485388 -0.12730682 -0.03643989
000090 38 2b 1f be 4b 56 5a 3d b4 bc 66 bd fe 31 6f 3c
       -0.1554383 0.05330495 -0.056332305 0.014599321
0000a0 70 24 fa bd aa b9 ba bc d1 8b 4b be a8 06 5f 3e
       -0.12213981 -0.02279361 -0.19877554 0.21779883
0000b0 df 4d b4 3d 0c 63 20 be c8 48 46 be 7f d0 f0 bd
       0.08803915 -0.15662783 -0.19363701 -0.117585175
0000c0 3a cf 6e bd 1c 51 a5 bd 87 9c 70 be 6b bb a5 3c
       -0.058303095 -0.08072111 -0.2349721 0.02023097
0000d0 23 98 dd 3d 65 fa aa 3e c2 55 36 be df d9 8b bd
       0.108200334 0.3339416 -0.17806152 -0.06828665
0000e0 35 05 d3 bc de 27 7e 3d 05 51 27 bd f5 38 14 be
       -0.025759319 0.06204974 -0.04084875 -0.14474852
0000f0 a7 15 a9 3d bc 37 ee 3c 28 6f ae 3d 2d 84 8a be
       0.08256083 0.02907931 0.08517295 -0.27053967
000100 c5 c8 80 3c e2 5f 2f be 87 92 32 bd e2 7a 90 bd
       0.015720734 -0.1712642 -0.04359677 -0.07054688
000110 05 06 18 be f3 72 ce bd 37 57 42 be 15 e1 7f bd
       -0.14846046 -0.100805186 -0.18978582 -0.062470514
000120 83 bf 22 bd 1b da 0a 3d 86 e2 e5 bd 58 42 58 3d
       -0.03973342 0.033899408 -0.112248465 0.052797645
000130 9f a6 70 bd 5a df 58 be d0 3e ea bd 72 9e a7 bc
       -0.058752652 -0.21178952 -0.11437762 -0.020461295
000140 a7 61 40 bd 74 0d 91 3b b2 47 d4 3d 77 fe 54 be
       -0.04696813 0.0044266526 0.10365237 -0.20800196
000150 8b 60 56 be e1 43 38 bd a0 86 44 bc dd 7f 62 3d
       -0.20935266 -0.04498661 -0.011994988 0.05529772
000160 78 55 f3 bd d7 1b 4b bd 15 67 af 3d 0e a1 42 3e
       -0.11881536 -0.049587097 0.08564583 0.1900675
000170 40 2f 28 be 46 da bc 3d c5 f2 77 bd 0c 85 45 3e
       -0.16424274 0.0922132 -0.060534257 0.19289035
000180 5c a5 7a bd 2b 79 dc 3c 37 1c 8c bd 89 9c 1c be
       -0.061192855 0.026913246 -0.06841319 -0.15294088
000190 8b bb 1f 3e dd 8d 00 be 50 e6 f7 bd 84 bf ae 3d
       0.15598886 -0.12554117 -0.121044755 0.085326225
0001a0 96 55 ab bd 60 5a b6 3d 5c f6 4d 3c 6d 81 d6 bd
       -0.083659336 0.089039564 0.012570944 -0.10473905
0001b0 db eb e4 bd 13 44 05 3d b0 2e 8e 3d 13 93 66 3d
       -0.11177798 0.032535624 0.06942499 0.056292605
0001c0 fc ac 3e be 86 a2 15 bd 81 19 41 bb 76 c0 99 bd
       -0.18620676 -0.036531948 -0.0029464664 -0.07507412
0001d0 63 36 04 be d5 b4 1d be 72 69 03 be 6a 53 18 bd
       -0.12911372 -0.15401013 -0.12833193 -0.037188925
0001e0 ef 76 a8 bd 2e cc 17 be ad 76 4e bb b5 3e 74 bd
       -0.0822581 -0.14823982 -0.0031503842 -0.059630115
0001f0 b9 28 5b be cf 3f 0c be ef 04 50 3d a5 bb 6b bd
       -0.21402253 -0.13696216 0.050785955 -0.057552
