demo/weights/bn-seg_2_1_moving_mean_0.npy (npy, 592 bytes, 1 tensors)

array f4 [128]
00000000: ab03 95bf 48f4 8bbf 5dee 7ebf 2b43 2ebf
00000010: d9c2 c63e 92b5 28bf 5e2a f6bf d096 2d3f
00000020: c720 d0bf f4bd 81be ffc3 81be ea9b 5d3f
00000030: 997e 10bf 3fef 39bf b647 aabf 2a5e 66be
00000040: 30a3 803f be87 fd3c 7436 5abf 382f 13bf
00000050: 0e9c 693f fa29 13bf 1c72 97be bef2 093f
00000060: 2942 08c0 eae0 ca3f d016 3abf cdca d2be
00000070: 51ae fdbf 4b66 ed3e 68ed bcbf 9290 1e3e
00000080: 6f34 8e3f 3a16 d13e 3c08 07c0 ae06 70bf
00000090: 3f7d a03e 8c98 c2bf c9f5 713f b945 123f
000000a0: 20e6 d83f 7b8b fabe f4dc 803f a3f4 15bf
000000b0: 0148 023f 3c60 a2bf 82c9 08bf 8342 91bf
000000c0: e78d ffbe d978 1dbf d720 d1bc 9cb4 e6bf
000000d0: 8e73 78bf eef3 713f 6f62 9bbf 7286 bebf
000000e0: e6d7 3fbf 40e0 483e b14c cc3e 66eb babf
000000f0: e82a 423f 1c23 1ebf 8020 84bf 14c6 983c
00000100: 40fc 30c0 6f87 da3e 381e b5be 1496 90bf
00000110: 796a a4bf fc25 023d 61bc 273f c8a1 303f
00000120: dffe 8c3c 99c2 05bf 90cb 84be 0313 7b3e
00000130: ffa8 3a3e 60a6 f1bf 7ee6 dabf c58f 1dbf
00000140: fccd 2fbf 9214 9abc c10c 86bf 38da 83bf
00000150: 10c2 713f 0351 94be 7135 773f e3ee 403f
00000160: 2fa7 9fbe 564b 36c0 a335 983e dbd0 01bf
00000170: 96b1 21bf 3935 4ebd 03d3 97bf 2646 4abf
00000180: 7868 363d c746 1fbe c4ec a13f ccca 653f
00000190: c7d0 283f c202 5bbf 7f85 debf 4941 ebbf
000001a0: 6364 4ac0 33ac b7be fac0 58be 5f40 fdbf
000001b0: a84e 3ec0 13ff fe3e 01a9 9abe 8bba fcbd
000001c0: 9cef 4cbf ac78 e1bf 4086 81bf f036 a83e
000001d0: 90eb 74bf 2aef 03bf 60c2 80bc 3bbd 30bf
000001e0: c88f 5bbd 3e61 9a3f 3ff1 79bd db3a bcbf
000001f0: ee96 e0be 610d be3d 467f 503e f071 0dbf
-1.1641744 -1.0933924 -0.99582464 -0.6807124 0.38820532 -0.65902054 -1.923168 0.67808247
-1.6260003 -0.25340235 -0.25344846 0.8656603 -0.5644317 -0.72630686 -1.3303134 -0.22496858
1.0049801 0.030948516 -0.8523934 -0.57493925 0.91253746 -0.57485926 -0.29579246 0.5388602
-2.129038 1.5849888 -0.7269106 -0.4117035 -1.9818822 0.46367106 -1.4759951 0.15484837
1.1109751 0.4083727 -2.1098776 -0.9376019 0.31345555 -1.5202804 0.94515663 0.5713764
1.6945229 -0.4893454 1.006743 -0.5857641 0.5089112 -1.2685618 -0.53432477 -1.1348423
-0.4991295 -0.61512524 -0.025528355 -1.8023868 -0.9705132 0.9451283 -1.2139415 -1.488478
-0.7493881 0.19616795 0.3990226 -1.4603088 0.7584672 -0.6177232 -1.0322418 0.018649139
-2.765396 0.42681453 -0.35374618 -1.12958 -1.2844993 0.031774506 0.6552182 0.6899686
0.017211376 -0.5225006 -0.25936556 0.24518971 0.1822853 -1.8878899 -1.7101591 -0.615475
-0.6867368 -0.018808637 -1.0472642 -1.030097 0.9443674 -0.28968057 0.9656592 0.7536451
-0.31182238 -2.8483481 0.29728422 -0.50709313 -0.631616 -0.050343726 -1.1861271 -0.7901329
0.044533223 -0.15554343 1.265038 0.8976257 0.6594357 -0.85551083 -1.738449 -1.8379298
-3.162377 -0.35873565 -0.21167365 -1.978527 -2.9735508 0.4980398 -0.30207065 -0.12340268
-0.80053115 -1.7614951 -1.0119095 0.32854414 -0.9567194 -0.5153681 -0.015717685 -0.6903874
-0.053603917 1.2060926 -0.061021086 -1.4705461 -0.4386515 0.092798956 0.20361051 -0.5525198
