demo/weights/bn-seg_1_1_moving_mean_0.npy (npy, 592 bytes, 1 tensors)

array f4 [128]
0	0xbf118656	-0.56845605
1	0xbf037a76	-0.51358736
2	0xbb525570	-0.0032094382
3	0x3e10b5bf	0.1413183
4	0x3f10b2fa	0.56523097
5	0xbeeb74c3	-0.4598752
6	0xbe5a8036	-0.21337971
7	0xbf18df77	-0.5971598
8	0xbc505d97	-0.012717626
9	0xbe2fddaa	-0.17174402
10	0xbf0478d7	-0.51746887
11	0xbec448f0	-0.38336897
12	0xbf33e2b4	-0.70267797
13	0x3ebafdba	0.36521703
14	0xbf1e1a06	-0.6175846
15	0xbf098ded	-0.53732187
16	0x3d4fd11f	0.050736543
17	0xbf07551a	-0.5286423
18	0x3f54dbd0	0.8314791
19	0x3f0c5213	0.54812735
20	0xbe80e5cf	-0.2517533
21	0xbedfab2f	-0.4368529
22	0xbf5167c8	-0.8179898
23	0x3e03dce3	0.1287723
24	0x3e124e5d	0.14287706
25	0x3e645b54	0.22300464
26	0x3edc1c5c	0.42990386
27	0x3e15813f	0.14600085
28	0xbf8f1217	-1.1177396
29	0x3e93c9d7	0.2886493
30	0x3f52b6e8	0.8231034
31	0x3e68811d	0.22705503
32	0x3e9025b5	0.28153768
33	0x3ee508c6	0.44733256
34	0xbf87b008	-1.0600595
35	0xbf2b3302	-0.66874707
36	0xbf8f4deb	-1.1195654
37	0x3f150a68	0.58219004
38	0x3f01147f	0.504219
39	0x3f3bca52	0.7335559
40	0xbed37eeb	-0.41307768
41	0xbe55ec41	-0.20890905
42	0xbf1fb4e6	-0.62385404
43	0xbf0259ec	-0.5091846
44	0xbf63a99c	-0.8893068
45	0xbf526b78	-0.82195234
46	0xbec82dcd	-0.39097443
47	0xbe2c94c6	-0.16853628
48	0xbf63c538	-0.88972807
49	0x3fcf08d7	1.6174573
50	0x3e8225c7	0.25419447
51	0xbf328edf	-0.69749254
52	0x3ea762f8	0.32692695
53	0x3d68cc8f	0.056835707
54	0xbed13cce	-0.40866703
55	0x3f0ec2f9	0.55766255
56	0xbec8ce3d	-0.39219847
57	0xbebcfde1	-0.36912444
58	0xbe1481c3	-0.14502625
59	0xbcfa72d6	-0.030572336
60	0x3e4b9d7d	0.19884296
61	0x3ee24fb5	0.44201437
62	0x3a1d9363	0.0006011037
63	0xbf301d99	-0.6879516
64	0xbe2a15d1	-0.16609885
65	0x3f6dd39c	0.92901015
66	0x3e6a0953	0.2285512
67	0x3ea83176	0.32850236
68	0xbd18426f	-0.03717273
69	0xbf47fd44	-0.7812083
70	0xbf23a89f	-0.6392917
71	0xbe65c6ab	-0.22439067
72	0x3a5accba	0.00083465467
73	0xbf444d7b	-0.76680726
74	0x3da8a1ed	0.0823401
75	0x3e60bccc	0.2194702
76	0xbf025608	-0.50912523
77	0xbf0b972d	-0.5452755
78	0xbe51dab2	-0.20493582
79	0xbf5cc7d0	-0.8624239
80	0xbe3a8d93	-0.18218069
81	0xbc7e76db	-0.015531267
82	0x3f3e1ff8	0.7426753
83	0x3f652461	0.89508635
84	0x3d98712d	0.074434616
85	0x3e6073bf	0.21919154
86	0x3adcc967	0.001684469
87	0xbeac7ea1	-0.3369036
88	0x3d8df4d2	0.069314614
89	0xbe1603ba	-0.14649859
90	0x3d24fc73	0.040279817
91	0xbe6017cd	-0.2188408
92	0x3e553458	0.20820749
93	0xbe29c2ae	-0.1657817
94	0x3e896d64	0.2684127
95	0xbf289735	-0.65855724
96	0x3e843580	0.25822067
97	0x3d26c1d7	0.040712204
98	0xbe9ee080	-0.31030655
99	0xbf529caf	-0.8227033
100	0x3eca40d9	0.395026
101	0xbe903633	-0.2816635
102	0xbe9e9e01	-0.30979922
103	0x3e7555a8	0.23958457
104	0x3e9b8235	0.30372778
105	0x3e7e06c2	0.24807265
106	0x3f0067ea	0.5015856
107	0xbe4708cd	-0.19436951
108	0x3f3d7921	0.74012953
109	0x3e59d0d2	0.21271065
110	0x3ef5438a	0.4790309
111	0xbe2f01f1	-0.17090584
112	0xbf13d2d6	-0.57743585
113	0xbf2039e4	-0.62588334
114	0x3f788566	0.9707855
115	0xbd0e7996	-0.034783922
116	0xbdd8e543	-0.10590603
117	0xbf8b5b98	-1.0887327
118	0xbe3ab316	-0.18232378
119	0xbf39d2d4	-0.72587323
120	0xbf912e41	-1.134224
121	0x3c060a04	0.008181099
122	0xbeb6f239	-0.35731676
123	0xbf43d08b	-0.76490086
124	0xbf29229d	-0.6606844
125	0xbe1ed3cb	-0.1551048
126	0xbde29cd2	-0.11065067
127	0xbf3f1202	-0.7463685
