demo/weights/bn-seg_3_1_moving_mean_0.npy (npy, 592 bytes, 1 tensors)

array f4 [128]
0	0xbf268e9c	-0.65061355
1	0xbf95d074	-1.170424
2	0x3d191cb3	0.037380885
3	0xbfe0dfd2	-1.7568305
4	0xbed1c72c	-0.4097227
5	0x3cbda08e	0.023147848
6	0xbe4a1fe6	-0.19738731
7	0xbef08a9d	-0.46980754
8	0xbf4d1a24	-0.8011801
9	0xbeddb3f3	-0.43301353
10	0xbf0c571f	-0.54820436
11	0xbf72fd2f	-0.9491758
12	0x3dbcf2a9	0.09225971
13	0x3eea06ed	0.4570841
14	0xbf3a16bd	-0.72690946
15	0xbe0d95a1	-0.1382661
16	0xbe919000	-0.28430176
17	0xbf2f8384	-0.6856005
18	0x3f987946	1.191201
19	0x3d91f9c4	0.07127717
20	0xbf471756	-0.7776998
21	0xbfc58f08	-1.5434275
22	0xbf040025	-0.5156272
23	0xbe3452a3	-0.17609648
24	0xbf58ab84	-0.8463671
25	0xbf3c7a84	-0.73624444
26	0x3e5a1550	0.21297193
27	0xbdc19b7b	-0.09453484
28	0xbf714d83	-0.942589
29	0xbf9f7b30	-1.2459469
30	0x3f8e4439	1.111457
31	0xbe82bb61	-0.25533584
32	0xbf763964	-0.9618132
33	0xbea5e254	-0.32399237
34	0x3c83a844	0.016071446
35	0xbf4065c1	-0.75155264
36	0xbee86ede	-0.45397085
37	0x3f14e26d	0.58158
38	0x3ef98e8a	0.4874156
39	0x3f7bfcdf	0.98432726
40	0xbf4b7860	-0.7948055
41	0xbf19072e	-0.5977658
42	0x3ec9e2bd	0.394308
43	0x3f05b55f	0.52229875
44	0xbf3130ac	-0.6921489
45	0xbf9fd42d	-1.2486626
46	0xbee750b1	-0.4517875
47	0xbf8de429	-1.1085254
48	0xbf7a55d3	-0.9778721
49	0xbf861b95	-1.0477167
50	0x3e6a6f5c	0.22894043
51	0xbf326312	-0.6968242
52	0xbf1d9413	-0.6155407
53	0xbf20392d	-0.62587243
54	0xbeb3a4db	-0.35086712
55	0x3ec9fd8b	0.3945125
56	0xbf7faa19	-0.99868923
57	0xbf5c4b08	-0.8605199
58	0xbf16cfdc	-0.5891092
59	0xbf85da26	-1.0457199
60	0xbf3fd351	-0.7493182
61	0xbf81fc12	-1.0155051
62	0xbf4ad462	-0.7923032
63	0xbe2423fe	-0.16029355
64	0xbf05c3d2	-0.52251923
65	0xbf86aaf1	-1.0520917
66	0xbf719083	-0.9436113
67	0xbf96e1b3	-1.1787628
68	0xbea61176	-0.32435197
69	0xbfb7a108	-1.4346018
70	0xbe81ade7	-0.2532799
71	0x3e3358d2	0.17514351
72	0xbf5df298	-0.86698294
73	0xbef3b05b	-0.47595486
74	0xbf339c84	-0.701607
75	0xbf337169	-0.70094925
76	0x3ee84754	0.4536692
77	0x3f676d70	0.90401363
78	0xbef431fb	-0.47694382
79	0xbe9af9ea	-0.30268794
80	0xbd16387c	-0.03667496
81	0xbf25e13a	-0.64796793
82	0xbf0787ab	-0.5294139
83	0xbf086f4e	-0.5329484
84	0xbf456bb9	-0.77117497
85	0xbdcd1608	-0.10013968
86	0x3f0fe1cc	0.56203914
87	0xbf76be9c	-0.96384597
88	0xbf2593bf	-0.6467857
89	0xbf467e86	-0.7753681
90	0xbe822ef8	-0.2542646
91	0xbdd1a4f9	-0.10236544
92	0xbf8126eb	-1.0090002
93	0xbf1425b5	-0.57870036
94	0xbde3ca21	-0.111225374
95	0xbf6d10f9	-0.92604023
96	0xbe319cd3	-0.1734498
97	0xbee7f925	-0.4530727
98	0x3e9007ea	0.28131038
99	0xbed5ba23	-0.41743574
100	0xbf3937f9	-0.7235103
101	0xbe8b48fd	-0.27204123
102	0x3ef2b679	0.4740484
103	0xbf1ca76d	-0.6119297
104	0xbe8eab20	-0.27864933
105	0xbea01ae7	-0.31270525
106	0xbf850b97	-1.0394162
107	0xbf865153	-1.0493568
108	0xbf1ee931	-0.6207457
109	0xbfceed53	-1.6166176
110	0xbf2975d8	-0.6619544
111	0x3f9e00dd	1.2344013
112	0x3e0d8f4d	0.13824196
113	0xbf67924d	-0.9045761
114	0xbe916468	-0.28396916
115	0xbf6ca67c	-0.92441535
116	0xbe7a3d2e	-0.244374
117	0xbf35c0f5	-0.70997554
118	0x3ea421f7	0.32057163
119	0x3f54c658	0.8311515
120	0x3f49a0fb	0.7876126
121	0xbda47b20	-0.08031297
122	0xbf7863cd	-0.97027284
123	0xbe272dd7	-0.1632608
124	0xbf2a69ea	-0.6656786
125	0xbf34de63	-0.70651835
126	0x3df1879d	0.11793444
127	0x3ec2f88a	0.38080245
