demo/weights/bn-seg_2_1_beta_0.npy (npy, 592 bytes, 1 tensors)

array f4 [128]
000000 5e be d3 be 34 c2 79 be 16 70 b6 3d b4 68 80 be
       -0.41356176 -0.24390489 0.089080974 -0.25079882
000010 2e 80 28 be 15 22 0b bf c1 7d b2 be 34 52 ff be
       -0.16455147 -0.5434888 -0.34861568 -0.49867404
000020 2f 15 01 bf 4a cc 17 bf 11 3e 06 bf 24 15 cf be
       -0.5042295 -0.59296095 -0.52438456 -0.40445817
000030 af ae d2 bd 4a 6d cf be 28 36 68 be 13 53 3e 3d
       -0.102872245 -0.40513068 -0.22676909 0.046465944
000040 37 6e b8 be 88 22 2a bf 41 1c 06 bf c9 d0 e8 be
       -0.36021587 -0.6645894 -0.5238686 -0.4547179
000050 47 6c b5 be b6 90 03 bf 6c dc 06 bf 1f ca 04 bf
       -0.35434172 -0.51392686 -0.5268009 -0.5187091
000060 a7 a2 af bd fd a9 e7 be f9 dd 1d bf 9e 8e ed be
       -0.08575945 -0.45246878 -0.6166683 -0.4639787
000070 17 54 16 3e 98 f5 14 bf d8 d2 c0 be 67 ae fc be
       0.14680515 -0.58187246 -0.3766086 -0.49351808
000080 0f d1 02 bf 36 29 1a 3d b1 c3 30 3e 21 1a f1 be
       -0.5110025 0.037636958 0.1726215 -0.47090247
000090 be 4c 17 bf 0a 9e bc be ea f2 11 bf fc cb 19 bf
       -0.59101474 -0.36839324 -0.5701128 -0.6007688
0000a0 a6 59 ce be a4 24 80 3d 4d cd fa be c4 8e 09 be
       -0.4030277 0.06256989 -0.48984757 -0.13433367
0000b0 20 03 0c bf 9d 3e ef be f8 4b 9c be 43 16 ef be
       -0.5469227 -0.46727458 -0.3052671 -0.46696672
0000c0 d9 aa e1 be ce ef b6 be 78 c4 8f be 64 4e ec bd
       -0.4407566 -0.3572983 -0.2807958 -0.11538389
0000d0 c3 22 26 be 59 0a 87 be 84 6d c5 be c8 6b 0f 3e
       -0.16224198 -0.26375082 -0.38560116 0.14005959
0000e0 4f 63 e1 be 14 63 15 bf 1d f7 5e bd 5e cc d0 be
       -0.4402108 -0.58354306 -0.054434884 -0.4078092
0000f0 d8 ca 3e be 59 a9 55 be 27 64 ec be ae 3d b6 bc
       -0.18632066 -0.20865382 -0.4617016 -0.022246208
000100 10 c6 7e 3e 7a 23 f9 be e2 02 07 bf 63 dd c1 be
       0.24880242 -0.4865988 -0.52738774 -0.37864217
000110 9d 04 2a bf 00 44 17 bf 84 a1 f9 be f4 ae 05 bf
       -0.6641329 -0.59088135 -0.4875604 -0.5222008
000120 c8 35 84 bd 11 e7 fd be b1 18 17 3e 4e 4a d2 be
       -0.064555705 -0.49590352 0.14755513 -0.41072315
000130 51 b6 b7 3d 2a ca 97 3e 51 d5 45 3e 19 01 bb be
       0.08970321 0.29646426 0.19319655 -0.36524275
000140 54 ed c9 bd 26 50 fd 3d 87 4b 00 bf 69 65 58 3a
       -0.0985972 0.12368803 -0.50115246 0.00082548574
000150 47 f1 50 3d f7 87 ec be 5d 8a 1d bf 63 d9 18 bf
       0.05101135 -0.46197483 -0.6153925 -0.59706706
000160 b1 64 84 be 03 b0 14 3e ba d1 98 3d 21 f3 a0 be
       -0.2585807 0.14520268 0.07461877 -0.31435493
000170 e1 b1 03 be 66 2e ee bd 65 e7 d0 be 60 eb 56 bd
       -0.12860824 -0.116299435 -0.4080154 -0.052470565
000180 3b 4a 11 bf 90 8b 1d bf e9 be 02 bf 46 7e 1b bf
       -0.5675389 -0.6154108 -0.51072556 -0.6073955
000190 d8 a8 20 bf 80 b8 0c be f0 d8 9c 3e ef 54 38 3e
       -0.62757635 -0.13742256 0.3063426 0.1800115
0001a0 6b 5c e3 3e ff e6 5a 3c fd a3 01 bf 90 6a be 3e
       0.44406447 0.013360738 -0.5064085 0.37190676
0001b0 b2 46 6c 3e 0e a0 06 be db 05 22 bf 65 42 2b be
       0.23073843 -0.13146994 -0.63290185 -0.16724546
0001c0 aa d4 4a be b0 ab 82 3e 7c 90 57 3e b3 8b 1d bf
       -0.19807687 0.25521612 0.2105121 -0.6154129
0001d0 b1 ea ef be 47 33 b4 be 5f 8e 08 bf ae 42 c3 be
       -0.46858743 -0.35195372 -0.5334224 -0.3813681
0001e0 eb 73 d6 be e2 66 0f bf 92 3b fb be 5d 91 c9 be
       -0.41885313 -0.5601636 -0.49068886 -0.39368716
0001f0 4c 62 bd be a2 9d 19 3e ea 6d ea be a0 26 93 be
       -0.36989057 0.15001538 -0.45786983 -0.28740406
