demo/weights/bn-seg_3_1_beta_0.npy (npy, 592 bytes, 1 tensors)

array f4 [128]
000000 01 93 63 3c 31 7e bd 3e 1b d4 98 bd 7d 5d 8a 3c
       0.013890029 0.3701034 -0.07462331 0.016890282
000010 64 07 ae be 10 a6 0d bf e8 55 d6 bd c2 52 d3 be
       -0.33990014 -0.55331516 -0.10465604 -0.41274077
000020 fa 0d 88 3e 82 83 a0 be e5 f7 eb be 7c 79 06 bf
       0.26573163 -0.31350332 -0.46087566 -0.5252912
000030 d4 b3 de be 46 95 ca bd 63 f9 2a 3e 1a d4 f0 bd
       -0.43496573 -0.09891753 0.16696696 -0.11759205
000040 e3 57 0d be 5d 9e 17 bc 87 61 b0 bd ba 9b 45 bd
       -0.13803057 -0.009254065 -0.08612352 -0.048244216
000050 f8 af b2 be 4d f1 3c 3e 29 0b 09 bf 8d c7 83 be
       -0.34899879 0.18451424 -0.53532654 -0.25738183
000060 d4 e7 b9 bd 90 08 b0 be 93 a4 18 bf 05 f3 66 be
       -0.09077421 -0.34381533 -0.5962612 -0.22553642
000070 da a4 be be 74 de 9c bc 68 6e d8 be 10 9a 14 bf
       -0.37235147 -0.019149043 -0.42271733 -0.5804758
000080 f0 e7 41 3e 0b d4 b5 be 57 f4 20 bf 2e 0d fb be
       0.18936133 -0.35513338 -0.62872833 -0.49033493
000090 29 ff 0c bf a1 da 33 bd 9c 64 06 bf 94 4a ac be
       -0.55076844 -0.043909673 -0.5249727 -0.3365065
0000a0 c1 f7 e7 be 6f 5b 09 bf a1 ca 1c bf ae 0d 16 bf
       -0.4530621 -0.5365514 -0.6124669 -0.58614624
0000b0 37 48 e2 be 6e 3e 22 3e a6 ae 1a bf 2f 20 ed be
       -0.4419572 0.15844128 -0.6042274 -0.46313617
0000c0 2f 0b d2 be 6d 6d 43 be ec 08 3b bf 52 5e f8 be
       -0.41024157 -0.19084711 -0.7306049 -0.4850946
0000d0 12 de 03 3e 26 c3 5c be 14 eb bf be bc 97 55 bb
       0.12877682 -0.21558818 -0.37484038 -0.0032591661
0000e0 41 9d e9 be 2a 72 b3 3d a6 31 1e be f4 ba 93 3e
       -0.45627788 0.087620094 -0.15448627 0.2885357
0000f0 9d 8f d5 be 6c 81 12 bf 19 0b 56 3e 41 2e e9 be
       -0.4171113 -0.5722873 0.20902671 -0.455431
000100 00 8b 27 ba 38 47 d8 be 5e 4d a5 3e 0c 86 9a 3c
       -0.0006391257 -0.42241836 0.3228559 0.018862747
000110 88 e9 06 bf 5d f2 cf 3e d6 a9 09 bf db f4 1d bf
       -0.5270009 0.40614596 -0.53774774 -0.61701745
000120 65 f0 af be 9d 84 f4 be 8c b4 46 be ed 39 ec be
       -0.34363094 -0.47757426 -0.1940481 -0.46137944
000130 4c a5 6e 3c 99 93 23 bf 16 98 eb be a0 60 20 bd
       0.014565777 -0.6389709 -0.4601447 -0.03915465
000140 94 a5 24 be 50 f4 10 bf 86 4b 80 3e 6b 7c fb be
       -0.16078788 -0.5662279 0.2505762 -0.4911836
000150 83 a5 1c be e9 92 23 bf 3d 31 30 bf e5 07 e7 be
       -0.15297513 -0.6389604 -0.6882513 -0.4512321
000160 24 90 13 bf 05 2a a3 be fc 5d 79 be 2c db fa be
       -0.57641816 -0.31867996 -0.24352258 -0.4899534
000170 ef 53 ee be a7 ae 54 be 6d 89 dd bc 85 5d 60 3e
       -0.4654841 -0.2076975 -0.027043069 0.21910675
000180 5d 55 6f be c9 b5 b9 be 37 d2 2a bf 14 20 ba be
       -0.23372407 -0.36271504 -0.6672701 -0.363526
000190 67 68 84 be c1 9f 8e bd 62 3c 0c bf 32 dc 11 bf
       -0.25860903 -0.069640644 -0.54779637 -0.56976616
0001a0 9e 2c 11 be e3 71 5c be aa 02 e3 be 21 f5 e0 bc
       -0.14177176 -0.2152782 -0.4433797 -0.027460637
0001b0 53 29 05 bf e7 f0 59 3e 92 af 08 bf 7f 16 0b bf
       -0.5201618 0.21283303 -0.533929 -0.543312
0001c0 24 4f 0e bf 05 74 17 3e 08 67 9a be 3f f1 63 be
       -0.5558951 0.14790352 -0.30156732 -0.22259997
0001d0 7d 38 ee be 0b 83 ce bd da 0e f2 be 6c 5d 29 bf
       -0.46527472 -0.10083588 -0.47276956 -0.66158175
0001e0 f0 1a 0e bf dc 7c 11 bf 3c 63 e9 be ed 8b e0 be
       -0.55509853 -0.56831145 -0.45583522 -0.43856755
0001f0 3a fe 66 be f9 39 59 be b8 c0 2b bf 75 d5 30 bf
       -0.22557917 -0.21213521 -0.6709094 -0.6907571
