demo/weights/convori_2_1_kernel_0.npy (npy, 131168 bytes, 1 tensors)

array f4 [1, 1, 256, 128]
000000 05 f8 6d bb b6 35 75 3c 5c 00 06 3d bb 88 31 3d
       -0.0036311161 0.014966419 0.032715186 0.043343287
000010 66 21 36 3d a6 bf 7c 3c e6 af c8 3c 1d 14 37 3d
       0.044465445 0.015426552 0.024497937 0.044696916
000020 df 09 3c bd 26 64 22 3d 4b 01 89 3d 56 ea 3f 3d
       -0.04590785 0.03964629 0.066897 0.04685434
000030 a7 a1 ee 3d dd 0a 6b bc c1 1e 4a 3d 5b 2f 30 3b
       0.116519265 -0.014345852 0.049345735 0.0026883695
000040 01 1d 68 3d 0f ce 42 3d d0 41 09 bd 33 07 15 bd
       0.056668285 0.047559794 -0.03351003 -0.03638382
000050 16 71 c6 bc 18 78 cc ba db 83 6e bc 78 c2 37 3d
       -0.024223845 -0.0015599756 -0.014557804 0.044863194
000060 a1 e0 81 bd be 5a 09 be 08 3e 58 3d 7d df b8 bc
       -0.06341673 -0.13413522 0.052793533 -0.022567505
000070 79 57 ce 39 7b a0 08 bd 4b 62 b5 bc c0 a0 ec b9
       0.00039356554 -0.03335617 -0.022141596 -0.00045133196
000080 c2 89 a6 bb b3 40 82 bd d9 25 d2 3c af e4 65 3c
       -0.00508234 -0.06359997 0.025652813 0.014031573
000090 e9 33 5b bd b5 3a 1e 3d 5f 7a 25 3d 05 85 14 bd
       -0.053516302 0.038630206 0.040399905 -0.03625967
0000a0 2f 6c 34 bd d9 b0 51 3c c0 7a 90 3b 6e 34 93 b9
       -0.044048484 0.012798511 0.004409164 -0.00028077088
0000b0 f9 70 a0 3b 4c ab 7d 3c d1 58 0e bc d9 75 0e bd
       0.00489628 0.015482735 -0.008688168 -0.034780357
0000c0 9b a6 59 3d 4f 07 28 3d f4 47 66 3d 97 f2 89 bd
       0.053137403 0.041022595 0.056220964 -0.067357235
0000d0 bf a3 91 3c c5 b4 de 3c b7 60 92 3c 85 29 2d bc
       0.017778276 0.027185807 0.017868383 -0.010568981
0000e0 f3 10 2b bc 79 2e c3 bd 8e 0e fe 3c 1c 53 8c 3d
       -0.010441053 -0.09530348 0.0310128 0.06851789
0000f0 3d ab 15 ba f1 59 17 3d f7 b6 ab 3d e1 3a ba 3b
       -0.00057094154 0.03695101 0.08384507 0.0056832884
000100 46 d8 55 3d 40 dc e5 3c d4 19 53 3d c2 2d 36 3c
       0.052208208 0.028059125 0.051538303 0.011119308
000110 2b ab f4 3c 41 71 4d 3c 83 24 87 3c 6f 06 57 3d
       0.029866775 0.012539209 0.016496902 0.05249637
000120 e6 26 75 3d 1d ad 2b bd c0 a3 b5 3d 3a 20 58 3d
       0.05985155 -0.04191314 0.088691235 0.05276511
000130 9e e3 9c 3d 79 b6 f8 3c 52 f7 98 3d 1a cd 98 3b
       0.07660602 0.030360447 0.074690476 0.004663122
000140 05 ca b5 3b ed fe 9e 3d b7 74 02 bd 24 47 cf 3c
       0.0055477642 0.07763467 -0.03184959 0.025302477
000150 51 f0 b5 3b c6 00 04 3d dc 8d a3 3c fd 75 3e 3d
       0.0055523296 0.0322273 0.019965105 0.04649924
000160 64 ae 37 ba af 9b 3d 3c 0e a9 b0 bc ac 5b 33 bd
       -0.0007006882 0.011572762 -0.021564987 -0.043788597
000170 8e 2e 9d 3d 5f 82 c2 3b b6 33 6a 3d 78 2c bc 3d
       0.07674895 0.0059359516 0.05717822 0.09188169
000180 0f 24 7d 3d 58 1f a7 3d 6d b5 cf bc ab b8 15 3d
       0.061801966 0.08160275 -0.025355065 0.036553066
000190 f1 90 17 3d e9 2c 30 bd b7 0a 12 3c 28 b0 a2 bc
       0.03700346 -0.04301158 0.008913687 -0.019859388
0001a0 f1 d0 8c 3d 75 56 1f bd 18 08 45 bd 77 2e 29 bc
       0.0687579 -0.03890081 -0.048103422 -0.0103260195
0001b0 b6 ce d0 3a db 3e d4 3d e8 25 8a 3d 7b 8f f7 3b
       0.0015930745 0.10363551 0.06745511 0.007554946
0001c0 e5 71 80 bd f4 c2 cb bc 24 d1 17 3c a7 24 b1 3c
       -0.06271724 -0.024873234 0.009266172 0.021623923
0001d0 71 f3 d5 3c 12 24 e0 bc 6c 0b 1d bb 44 fc 9a bb
       0.026117058 -0.02736095 -0.0023963107 -0.0047297794
0001e0 74 b6 a0 bc 92 2a d1 b8 f1 93 45 3c c8 a5 0a 3b
       -0.01961825 -9.973826e-05 0.012059198 0.0021155942
0001f0 d5 b4 b0 bc 94 38 21 3d b5 b3 5f 3d c2 71 d6 3b
       -0.021570602 0.039360598 0.05461474 0.0065443227
000200 ce 01 24 3d e3 b0 8f ba 3b fd 07 3d 32 b8 01 3d
       0.040040784 -0.001096275 0.033200484 0.031669803
000210 08 50 b9 3d 55 3c 7a bc 71 62 1e 3d 1c ea 50 3d
       0.09048468 -0.015273173 0.0386681 0.051004514
000220 0f 1f 97 bb 70 31 2a 3c 82 47 88 3c f4 82 37 3c
       -0.004611857 0.010387763 0.01663566 0.011200655
000230 a6 53 5b bd 2d 1b 07 3d bb a2 04 3d a2 85 01 3d
       -0.05354657 0.0329849 0.032381754 0.031621583
000240 42 6f 01 3e 1a 55 1d 3c 00 98 49 bc a8 1d 3e 3d
       0.12640098 0.009602809 -0.012304306 0.046415
000250 64 af c2 3c 80 86 06 bd 57 09 09 3b 46 4b 73 3d
       0.023765273 -0.032843113 0.0020910108 0.05939796
000260 e2 12 50 3c 23 ad 8d bd 8b 82 35 3b e8 b3 45 bd
       0.0126998145 -0.06917789 0.0027696218 -0.048267275
000270 ef 6f 8d bc 4b d6 01 bb dc 31 ba 39 3d 52 dc bb
       -0.017265288 -0.0019811566 0.00035513833 -0.0067236708
000280 e7 6d 35 3d e2 ff cb 3b 2d b5 14 3d ba 51 f2 bc
       0.044294264 0.006225572 0.036305595 -0.029579986
000290 5c 9e 35 bc 46 a1 b9 bc b3 03 61 bb 7e 87 82 3c
       -0.011085119 -0.022659909 -0.003433448 0.015933748
0002a0 8f bf 7c bd 43 ca 69 3c 8a 7b 05 bc 90 0c 8e 3d
       -0.061706122 0.014269414 -0.00814713 0.0693599
0002b0 b0 2d f4 bc d9 3e 1d bc e8 7d 67 bd 5a 99 39 3d
       -0.029806942 -0.009597504 -0.056516558 0.045312263
0002c0 60 e2 bf 3c 31 51 77 3d 14 bd 97 3d 9b 43 09 3d
       0.023423374 0.060380165 0.07409111 0.03351174
0002d0 26 c4 85 3d 0a 4c 10 3b 23 49 a1 3c 0d 72 88 3d
       0.06531553 0.002201798 0.019688195 0.066623785
0002e0 ad df 09 3c 7c 4f 84 3b 87 a5 ca 3c fc 84 2e 3b
       0.008415145 0.0040377956 0.024737133 0.0026629558
0002f0 18 35 92 bb d0 c3 05 3d ca a2 fc bc 13 df 82 3c
       -0.0044618957 0.032657444 -0.030839343 0.01597551
000300 24 3a 9c 3b 93 b6 e3 3c 9e eb 9e 3d b5 08 c7 bc
       0.004767673 0.02779702 0.07759784 -0.024296144
000310 56 9e ed 3c ef 10 2d 3d 7e 5e ef 3c 36 19 ad 3d
       0.029006165 0.042252477 0.029219862 0.08452074
000320 41 77 d1 3d 75 23 88 3d 16 38 82 3a 0a 32 81 bc
       0.10227824 0.06647388 0.0009934928 -0.01577093
000330 d9 9d be 3c 6d a1 8f 3d 38 32 50 3d b4 7d 3f bc
       0.023268627 0.070132114 0.050829142 -0.011687685
000340 6d eb 52 bc 11 94 4a 3d 32 c7 f2 3d 88 16 3e 3d
       -0.012873513 0.049457613 0.118544 0.046408206
000350 46 6a ee 3c 04 7a 64 3d 32 1e 83 3d 7a 35 75 3d
       0.02910341 0.055780426 0.06402244 0.059865452
000360 3d 57 ad 3b 14 ed 01 bb 1f 14 2d 3c 8c d5 f6 39
       0.0052899406 -0.0019825147 0.010563879 0.0004707988
000370 ed 95 c6 bc 98 17 30 bd 63 a6 c9 3d 9e 7a 87 3d
       -0.024241412 -0.04299125 0.09846189 0.06615184
000380 31 b7 9e 3c f3 2f 43 3d 3e fa 21 3d 00 52 00 3b
       0.019374462 0.04765315 0.03954529 0.0019580126
000390 84 a1 7a 3c 34 e5 66 3d 54 55 29 3d c7 65 4b 3c
       0.015297297 0.05637093 0.04134114 0.012414402
0003a0 40 09 c5 bc b1 f3 8e bc 78 0d cc bc 9b 8e 1d bc
       -0.024052262 -0.017450185 -0.024908766 -0.009616519
0003b0 33 8f a7 3d 4f 07 23 3d c8 50 7b 3c 0d c0 47 bc
       0.0818161 0.039801892 0.015339084 -0.012191785
0003c0 31 45 07 3c ad df 11 3d 6b 26 69 3d 2b 87 0f bc
       0.008256243 0.035613704 0.056921404 -0.008760254
0003d0 4e 7e 85 3d d6 cf c0 3c e1 8c 91 3d 4e ae 20 3d
       0.06518231 0.023536604 0.07106949 0.03922873
0003e0 37 51 dc 3c 43 f0 3a bc 33 87 73 ba c9 a1 20 3d
       0.026894195 -0.011409822 -0.00092898606 0.03921679
0003f0 76 09 3b bc d9 05 41 3c 6f c5 1a 3d 98 58 75 3a
       -0.01141583 0.011781179 0.037785944 0.000935921
