demo/weights/convori_1_1_kernel_0.npy (npy, 131168 bytes, 1 tensors)

array f4 [1, 1, 256, 128]
0	0xbc9a001e	-0.018798884
1	0x3d58ad75	0.052899797
2	0xbd323cde	-0.04351508
3	0xbc5b1202	-0.013370993
4	0x3cb7625f	0.022385774
5	0x3cadcde7	0.021216346
6	0x3be91209	0.0071127457
7	0x3d2875df	0.041128036
8	0x3d627711	0.05528933
9	0x3caf0d5f	0.02136868
10	0x3d20e78e	0.039283328
11	0x3c4c2e15	0.012462159
12	0xbd76cfcc	-0.060256764
13	0xbcff623f	-0.031174777
14	0xbc5ffd58	-0.013671242
15	0x3c02dbf2	0.007987009
16	0xb8965caf	-7.169821e-05
17	0x3d919d19	0.07110042
18	0x3d5b21fb	0.053499203
19	0x3c38b5d9	0.011273825
20	0xbd9eded6	-0.07757346
21	0xbd2dac0d	-0.04240041
22	0xbdb001a6	-0.085940644
23	0xbc876b6c	-0.016530715
24	0xbd72c24a	-0.05926732
25	0xbcde0439	-0.027101623
26	0xbdcf147e	-0.101113304
27	0xbd6a94b4	-0.05727072
28	0x3cc3c840	0.023899198
29	0xbd8eceb0	-0.06973016
30	0xbd57ed9f	-0.052716848
31	0x3ce4fdb0	0.027952999
32	0xbc38e6bb	-0.011285479
33	0x3deb76e0	0.11497283
34	0xbd0c979b	-0.03432427
35	0xbdcd8cbd	-0.10036609
36	0xbcb58ad0	-0.022160918
37	0xbc5607b8	-0.013063364
38	0xbd813f72	-0.06310929
39	0xbc864446	-0.016389977
40	0x3d45d653	0.0483001
41	0x3d9dbb2a	0.07701714
42	0xbd34c151	-0.044129673
43	0x3b8cdb12	0.004298576
44	0x3c5c2578	0.013436668
45	0x3d3cc08c	0.046082065
46	0xbc897e5a	-0.016783882
47	0xbc9f6a28	-0.019459799
48	0xbc4233d5	-0.011853178
49	0x3acea0a2	0.0015764425
50	0x3b58f70b	0.0033106233
51	0xbbaadbc4	-0.0052141864
52	0x3ddd625f	0.108097784
53	0xbc985c54	-0.018598713
54	0xbd8289ac	-0.06373915
55	0xbc8d2293	-0.0172284
56	0x3e02e33c	0.12781996
57	0xbd2f1964	-0.042748824
58	0xbd6f8eba	-0.058485724
59	0xbd9c5ed2	-0.07635273
60	0x3bbed2a0	0.0058234483
61	0xbc31b9fe	-0.010847567
62	0x3d893760	0.06700015
63	0x3d373232	0.044725604
64	0xbe19492a	-0.14969316
65	0xbd0ea01c	-0.03482066
66	0x3ba8ce86	0.0051515726
67	0x3c201e1c	0.009772804
68	0xbd4cacbe	-0.049969427
69	0xbc14c856	-0.009080967
70	0xbd2015e1	-0.039083365
71	0xbd9e3adc	-0.0772607
72	0xbd221a28	-0.039575726
73	0xbccfa1fb	-0.025345793
74	0x3bd715bd	0.0065638707
75	0xbc3bd2d1	-0.011463837
76	0x3e2513db	0.16120856
77	0x3d3f5246	0.04670932
78	0xbca79a0c	-0.020459197
79	0x3e3f43d0	0.18678212
80	0x3d257838	0.040397853
81	0x3dd7ab1f	0.10530686
82	0x3d397fd7	0.045287933
83	0x3bc0ea4b	0.005887305
84	0xbd9b4efa	-0.07583423
85	0xbd184746	-0.037177347
86	0x3cf10bbb	0.029424539
87	0xbd0ec623	-0.034856927
88	0x3b5fe395	0.003416275
89	0x3d14671e	0.036231153
90	0xbd9ca71b	-0.0764906
91	0xbd9e2c5e	-0.07723306
92	0x3c401cae	0.011725588
93	0xbcff0f72	-0.031135295
94	0x3cc15a33	0.02360258
95	0xbce1004a	-0.027465958
96	0xbd84722b	-0.06467088
97	0xbdcbcf89	-0.099516936
98	0xbc940213	-0.018067395
99	0xbc68f58f	-0.014218702
100	0xbda45d0d	-0.080255605
101	0xbca20ae8	-0.019780591
102	0xbd2e0979	-0.042489503
103	0xbce7cf67	-0.02829714
104	0x3dbaf542	0.091288105
105	0xbd89a19c	-0.06720278
106	0xbdbffdc4	-0.09374574
107	0x3cd31baf	0.025770037
108	0xbb199d44	-0.0023439685
109	0xbcad2d71	-0.021139832
110	0xbc4691a9	-0.012119689
111	0x3a877624	0.0010334891
112	0x3d7a0519	0.061040018
113	0xbc709dae	-0.014686031
114	0x3b3904a6	0.002823153
115	0x3c39e3a5	0.011345779
116	0x3ac7c4a3	0.0015241097
117	0x3c838950	0.016056687
118	0x3dafe84b	0.08589228
119	0xbc1bcad9	-0.009508812
120	0xbc63d530	-0.013905808
121	0xbd4ac2b0	-0.049502075
122	0x3cadc8b9	0.021213876
123	0xbd0bae8b	-0.034102004
124	0xbbea6a41	-0.0071537797
125	0xbd73dece	-0.059538655
126	0xbd077364	-0.03306903
127	0xbcb82757	-0.022479696
128	0x3c468984	0.012117747
129	0x3a7366c8	0.000928503
130	0xbb8832ac	-0.004156431
131	0x3d7cf4e8	0.061757
132	0x3cf8b110	0.030357867
133	0x3cca1517	0.02466826
134	0x3ccd8453	0.025087511
135	0x3c792af7	0.0152079975
136	0x3d99e09e	0.075135455
137	0x3ce6bbc9	0.028165715
138	0xbdb8dbdd	-0.090263106
139	0x3d380064	0.044922248
140	0x3d0ae968	0.033914
141	0xbcf6c039	-0.030120956
142	0x3c801738	0.015636072
143	0x3d29e138	0.04147455
144	0x3c6320c0	0.013862789
145	0x3d19e88e	0.037575297
146	0xbbeff56f	-0.007322959
147	0xbc6ef639	-0.014585071
148	0x3ca29a2d	0.019848907
149	0xbc1cc9b4	-0.009569574
150	0xbbca690d	-0.006177074
151	0xbca95f17	-0.020675225
152	0xbc5ac114	-0.0133516975
153	0xbdd0870e	-0.1018201
154	0xbc039ce6	-0.008033013
155	0x3da0c130	0.078493476
156	0x3d9f383e	0.07774399
157	0xbc9c40e4	-0.019073911
158	0x3cf042fc	0.029328816
159	0xbcf80516	-0.030275863
160	0xbd10a043	-0.035309087
161	0x3aad6bba	0.0013230958
162	0x3cbbd689	0.022929447
163	0xbc19a56f	-0.009377821
164	0x3d171bd1	0.036891762
165	0x3be2664c	0.0069091674
166	0x3d1fac04	0.038982406
167	0x3c9ba1ba	0.018998016
168	0x3d2f91a4	0.042863503
169	0xbc8814a7	-0.01661141
170	0xbd38b1dc	-0.045091495
171	0x3ca8b193	0.020592486
172	0x3cf66e81	0.03008199
173	0xbd18c3da	-0.037296154
174	0x3c9289f5	0.017888049
175	0xbb8ee8d8	-0.004361253
176	0xbc65ed4f	-0.01403363
177	0x3d1eb53a	0.03874705
178	0xbc353d73	-0.011062014
179	0xbd11455d	-0.03546654
180	0x3ca6d76c	0.020366393
181	0xbd4a95ea	-0.049459375
182	0xbcff946e	-0.031198706
183	0x3ae1bfe6	0.0017223328
184	0xbc41504d	-0.01179893
185	0xbba6f440	-0.005095035
186	0x3c7df788	0.015500911
187	0x3c4231f3	0.011852729
188	0x3c9a680d	0.018848443
189	0xbd6aef5e	-0.057357185
190	0xbd83413b	-0.06408926
191	0xbb3e5066	-0.002903962
192	0xbb94f307	-0.0045455727
193	0x3da54440	0.08069658
194	0xbcd14e9f	-0.025550185
195	0x3afbe9d4	0.0019219466
196	0x3cc6dc04	0.024274834
197	0xbbe8d2f8	-0.0071052276
198	0x3d18053c	0.037114367
199	0xbcce1a41	-0.025159003
200	0x3d4ca298	0.04995975
201	0x3cdf78f5	0.027279356
202	0x3d888b11	0.0666715
203	0x3d41cd36	0.047314845
204	0xbd80001b	-0.0625002
205	0xbce40cb9	-0.027838098
206	0xbbbab57f	-0.0056979056
207	0xbd167932	-0.036736675
208	0x3c89a3e3	0.01680178
209	0x3d244676	0.04010626
210	0x3d063416	0.032764517
211	0x3d0bcd77	0.034131493
212	0x3b114182	0.002216429
213	0x3c896888	0.016773477
214	0xbbab8344	-0.005234154
215	0xbd1fba7f	-0.038996216
216	0xbbe67bdb	-0.0070338077
217	0x3c6f0e8c	0.014590871
218	0x3a2887a7	0.0006428905
219	0xbb3c7100	-0.0028753877
220	0xbb8fef13	-0.0043925135
221	0x3b889ff2	0.0041694576
222	0x3afeb15d	0.001943152
223	0x3d114a94	0.035471514
224	0xbd06214d	-0.0327466
225	0x3c457d5b	0.012053813
226	0x3d6f086d	0.058357645
227	0xbd1d6877	-0.038429704
228	0xbbf1bbd9	-0.0073771295
229	0x3c1bc8d9	0.009508335
230	0x3ce2b522	0.027674261
231	0x39329482	0.00017030726
232	0x3c2eff42	0.010680975
233	0xbba7a41d	-0.0051159994
234	0x3ba4bf3a	0.005027679
235	0xbceab7cd	-0.028652096
236	0x3d2b43f7	0.041812863
237	0xbd0e3908	-0.034722358
238	0x3c4e3005	0.012584691
239	0xbcf02efe	-0.029319283
240	0x3d0bd401	0.03413773
241	0x3d46e7b6	0.04856082
242	0x37fadad1	2.9904217e-05
243	0xbce0e82c	-0.027454458
244	0xbba4e747	-0.005032453
245	0x3cb43f89	0.022002952
246	0xbc1de352	-0.009636717
247	0x3bf85d9b	0.007579518
248	0x3d564cad	0.052319217
249	0xbcc2ea0f	-0.023793248
250	0xbc9724dd	-0.018450195
251	0xbd843cc4	-0.064569026
252	0xbd0b9d9d	-0.03408586
253	0x3bfaa614	0.0076491926
254	0x3dd9fb6c	0.10643658
255	0x3c1f9da7	0.009742177
