demo/weights/convori_1_1_bias_0.npy (npy, 592 bytes, 1 tensors)

array f4 [128]
000000 ac 5d eb bb b0 73 2f bc 0e 5e cb bd 7e 25 79 3d
       -0.0071827974 -0.010708734 -0.09930049 0.06082677
000010 22 31 2a 3d 0a 02 9d bd b1 90 aa 3c f2 e2 9b bd
       0.041550763 -0.076664045 0.020820947 -0.07611646
000020 00 a9 4c 3d 21 55 2c 3d 92 ff ca 3a 3c 93 84 3b
       0.04996586 0.042073373 0.0015487543 0.004045872
000030 24 10 a9 bd c1 ae 87 3d a4 b7 7e bd db 35 cc bc
       -0.08255032 0.066251285 -0.062186852 -0.024928024
000040 cd 38 75 3d 30 55 ca bd b4 e1 13 be d5 e5 4f 3a
       0.059868623 -0.098795295 -0.14441568 0.0007930671
000050 a4 3e 02 bd cd d2 7d bb 07 72 da 3c 56 bf fe 3a
       -0.03179802 -0.0038730383 0.0266657 0.0019435685
000060 a2 c8 19 bd 54 bd 14 3b a3 73 67 bd e3 62 1e 3d
       -0.037544854 0.0022695856 -0.056506764 0.038668524
000070 29 37 01 be ee c2 22 be e5 f4 2c bd ec 21 63 3d
       -0.12618698 -0.15894672 -0.042225737 0.055452272
000080 96 64 de bc 9a d8 a5 bd 8f 9b f1 3a 9e 85 2d bd
       -0.027147572 -0.08097954 0.0018433201 -0.042363755
000090 6b e9 d1 bc 44 39 34 bd 59 9f 96 3d c3 b6 ca bd
       -0.025623998 -0.043999925 0.07354612 -0.0989814
0000a0 1d d9 56 3c d0 58 53 3d f8 6a c1 bb 4b f7 38 3d
       0.013113287 0.05159837 -0.0059026442 0.045157712
0000b0 f3 f3 fc ba dc 38 08 3d 6d 53 ec 3c 14 15 48 3c
       -0.0019298777 0.03325735 0.028848374 0.012212057
0000c0 15 d0 a2 3c 7f b2 1a 3c 6c e4 ab bc da f2 26 3d
       0.019874612 0.009441971 -0.020982943 0.040758945
0000d0 cc 4b 3c 3e 32 e7 12 be 11 d7 f7 bd 19 53 89 3c
       0.18388289 -0.14346007 -0.121015675 0.016763257
0000e0 bd 00 a3 bc 39 74 a2 bd 92 21 1a 3c 68 4e 0b 3d
       -0.019897813 -0.07932324 0.009407418 0.03401032
0000f0 3a 9d b1 3b 05 79 b7 bd 14 a6 63 bd 28 1f 65 bc
       0.005420354 -0.089586295 -0.055578306 -0.013984479
000100 7b 47 3f bb 46 88 d8 bd 9c 0e db bc db 39 99 bb
       -0.0029186893 -0.10572867 -0.026740365 -0.0046760864
000110 35 e3 b8 bc 11 ff 94 3d d5 5a 65 bd 9a c5 c7 3c
       -0.022569278 0.072752126 -0.055994827 0.024386216
000120 ee 2a 0b be 32 9f 8a bc 72 86 44 3d 64 8c 09 be
       -0.13590595 -0.016921613 0.04797978 -0.13432461
000130 0b a6 be 3c 5c 84 0f 3d d1 a7 b3 bd 99 a4 e2 bd
       0.023272535 0.035038337 -0.08772243 -0.11066551
000140 f0 1b 12 3b 41 4f c6 3d c8 66 1e bd 44 fd c0 3c
       0.0022294484 0.09683085 -0.03867224 0.023558266
000150 e8 08 e3 3c 99 8e a2 3d 0d 47 fe bd 79 7e b6 3d
       0.027714208 0.079373546 -0.124158956 0.089108415
000160 14 16 32 bd 55 0e 42 be 34 e5 e0 bc 4b 33 68 3d
       -0.043478087 -0.1895078 -0.027453043 0.05668954
000170 6e 54 c5 bb c1 78 93 bd c2 7a af bc 2e 75 3a 3e
       -0.0060220277 -0.07200766 -0.02142084 0.18208763
000180 b4 79 2a bc b1 17 9d bd be 48 28 be a3 1f b6 bb
       -0.010404993 -0.076705344 -0.16433999 -0.0055579706
000190 53 9a bf 3b b9 8c d9 bd 9d 8a ce 3a 59 f1 6c 3d
       0.0058472543 -0.10622544 0.0015757863 0.057847355
0001a0 22 d3 4a bc 21 75 03 be 60 ff 00 3d 3c 9a 2d 3d
       -0.01237944 -0.1283765 0.031493545 0.042383417
0001b0 55 c2 10 be e5 79 09 be 36 cf 21 bb 2e c8 b2 bc
       -0.14136632 -0.13425405 -0.0024690158 -0.021823969
0001c0 ec 8c f9 bc cd b0 46 3c 98 ac 47 be 83 7e dd 3d
       -0.030462705 0.0121271135 -0.19499433 0.10815146
0001d0 6f 5f aa bd 86 b2 50 bd 33 15 4e 3c 38 50 82 3d
       -0.08318984 -0.050951503 0.0125782965 0.06362957
0001e0 27 13 c3 3b cb f8 1d 3b 27 50 4e bc 3d bd 5c 3b
       0.005953211 0.002410459 -0.012592352 0.003368213
0001f0 08 7a f8 bc c6 7c 30 bd 69 83 c1 3d 82 df 94 bd
       -0.030331627 -0.043087743 0.094488926 -0.07269193
