demo/weights/conv1_2_kernel_0.npy (npy, 147536 bytes, 1 tensors)

array f4 [3, 3, 64, 64]
0	0xbc827649	-0.015925543
1	0xbc41d538	-0.0118306205
2	0xbd893f53	-0.06701531
3	0x3dcdcee8	0.1004923
4	0xba04503e	-0.00050473574
5	0xbd46c097	-0.04852351
6	0xbc1930f1	-0.009350047
7	0xbcaa0417	-0.020753903
8	0xbcbfcc73	-0.023412919
9	0xbcd2f543	-0.025751716
10	0x3dc69cb1	0.09697855
11	0x3cd674d6	0.026178759
12	0x3de56fcf	0.112029664
13	0x3cde7110	0.027153522
14	0xbd5173ac	-0.051135704
15	0x3c84bac4	0.016202338
16	0xbcfaa767	-0.030597402
17	0xbd33c07f	-0.04388475
18	0xbde2fa48	-0.110828936
19	0x3aa8036b	0.0012818401
20	0xbd24c578	-0.040227383
21	0x3d3c0caf	0.045910534
22	0x3ce3c16e	0.027802195
23	0xbdb9dadf	-0.090749495
24	0x3ce97746	0.028499257
25	0xbcc47498	-0.023981377
26	0x3d6342d5	0.055483658
27	0xbd23e097	-0.040009107
28	0x3d9cc685	0.07655052
29	0xbd9b2c3d	-0.07576797
30	0xbc9c2352	-0.01905981
31	0xbd8801f7	-0.06641
32	0xbc785954	-0.015158016
33	0xbd602fcb	-0.05473308
34	0xbd1bac16	-0.03800591
35	0xbc8e3809	-0.017360704
36	0x3d08593b	0.03328822
37	0x3d0469a8	0.032327324
38	0xbd12574a	-0.035727777
39	0xbcf5d73f	-0.030009864
40	0x3cb2cb92	0.021825586
41	0x3d4d4bf5	0.050121266
42	0x3d387901	0.045037273
43	0x3d468958	0.048470825
44	0x3d7fbc5e	0.0624355
45	0xbdcc6411	-0.09980024
46	0x3cd79822	0.02631766
47	0x3dbb0ce1	0.09133316
48	0xbe30cbb8	-0.17265213
49	0x3c86d55c	0.01645916
50	0xbce60b13	-0.028081452
51	0xbdc9cef9	-0.0985393
52	0x3c8d59bc	0.017254703
53	0xbd0291dc	-0.031877384
54	0xbdcbee6a	-0.09957583
55	0xbcb15d9a	-0.021651078
56	0x3ceb891e	0.028751906
57	0x3b18f2c6	0.0023338064
58	0xbe23a493	-0.15980749
59	0xbc17c5b0	-0.009263441
60	0xbb89f37e	-0.0042099347
61	0xbbf52d3f	-0.0074822004
62	0x3cee23cb	0.029069802
63	0x3d16a57e	0.03677892
64	0xbc2cc169	-0.010544159
65	0xbd6eea3a	-0.058328845
66	0x3cf29104	0.029610164
67	0x3c853552	0.016260777
68	0xbbc20854	-0.005921403
69	0x3d333860	0.043754935
70	0x3b9b35ad	0.0047366233
71	0x3d543a6f	0.05181354
72	0x3c92eed5	0.01793615
73	0x3de40341	0.11133433
74	0xbc352936	-0.011057189
75	0x3be7a578	0.007069286
76	0x3d340452	0.043949433
77	0x3d4b7304	0.049670234
78	0xbdb4ecbb	-0.08834215
79	0x3d061d32	0.032742687
80	0x3c9eecc4	0.019400008
81	0xbd7a702a	-0.061142124
82	0x3cffac98	0.031210229
83	0x3d24dc93	0.04024942
84	0x3cf7e11b	0.030258706
85	0xbd7065d9	-0.05869088
86	0xbdfd3012	-0.12362684
87	0xbd190de5	-0.037366766
88	0x3d08bdaf	0.03338402
89	0x3d9c3d2b	0.07628854
90	0xbc188046	-0.0093079265
91	0xbbe7fed7	-0.00707994
92	0x3ce64e75	0.028113583
93	0x3d9ab85d	0.07554696
94	0x3d87ddd8	0.0663411
95	0x3d5776f9	0.052603696
96	0x3c07ef7e	0.0082968455
97	0x3d7514e0	0.05983436
98	0x3b109fd4	0.0022067921
99	0xbbf1b433	-0.0073762177
100	0x3d445cfc	0.04794024
101	0x3d12a1df	0.035798904
102	0xbda5fb44	-0.08104566
103	0xbcc2a8b0	-0.023762077
104	0x3dc63492	0.09677996
105	0x3cabfd6b	0.020994863
106	0xbd0fc4b3	-0.035099696
107	0xbcc9c2a2	-0.024628941
108	0x3d1799cc	0.037011907
109	0x3daef9e6	0.08543758
110	0x3c3aa690	0.011392251
111	0x3c134dfd	0.008990762
112	0x3d9ee1a2	0.0775788
113	0xbc5dde38	-0.013541751
114	0x3d38bdae	0.045102768
115	0xbcbc2447	-0.022966517
116	0x3cfa992b	0.030590614
117	0xbc19e2f5	-0.00939249
118	0x3d937b0d	0.072012044
119	0x3d8bf882	0.068345085
120	0x3d991b49	0.07475907
121	0x3dda4023	0.10656764
122	0xbd8fbccd	-0.07018433
123	0xbd238808	-0.03992465
124	0xbc890e43	-0.016730433
125	0xbdebcba1	-0.115134485
126	0xbd3e1fae	-0.04641693
127	0x3da4c162	0.08044697
128	0x3d170181	0.03686667
129	0xbccd4ee3	-0.02506203
130	0xbb4cbfc8	-0.003124224
131	0xbc0616ca	-0.008184144
132	0x3c4c9e53	0.012488919
133	0xbb87a0cf	-0.004139043
134	0x3c8d5ad9	0.017255234
135	0xbcb50d85	-0.022101173
136	0x3bcc3b08	0.006232623
137	0xba9cf0fb	-0.0011973673
138	0xbd7a5387	-0.061114814
139	0xbbbc75a7	-0.00575133
140	0x3c0fca0c	0.008776199
141	0xbd1399e5	-0.036035437
142	0xbc79c3c4	-0.015244428
143	0xbc85ee36	-0.01634894
144	0x3ca2ee55	0.019889036
145	0x3d09e021	0.03366101
146	0x3c94af8d	0.018150115
147	0x3a66ae49	0.0008799774
148	0xbb1f16ee	-0.0024275142
149	0x3d01a364	0.031649962
150	0xbc6b72e8	-0.0143706575
151	0xbc11fb29	-0.008909979
152	0xbba4e010	-0.005031593
153	0xbc8de524	-0.017321177
154	0xbb494933	-0.0030713796
155	0xb914d78c	-0.00014194677
156	0xbc5c2805	-0.013437276
157	0xbd990b1c	-0.07472822
158	0xbc149399	-0.009068393
159	0xbb32eba5	-0.00273011
160	0xbd282eb2	-0.041060157
161	0x3d2785a8	0.04089895
162	0xbca5075a	-0.020145107
163	0xbcbafab5	-0.022824625
164	0x3cc06034	0.023483373
165	0xbb067006	-0.0020513549
166	0x3cbe2c31	0.023214431
167	0x3d81c85d	0.063370444
168	0x3b42c748	0.0029720832
169	0x3c92a865	0.017902562
170	0x3aebb9e7	0.001798448
171	0x3d29222e	0.041292362
172	0x3c62ded1	0.013847069
173	0xbc99cb51	-0.018773707
174	0x3c6d89e1	0.014498205
175	0x3cb52df7	0.022116644
176	0xbd3a491c	-0.04547988
177	0xbc5502e2	-0.013001176
178	0xbd1aa02b	-0.037750404
179	0xbc823db5	-0.015898565
180	0xbd98024a	-0.074223116
181	0xbd462f87	-0.04838517
182	0x3c4dbbaf	0.012556954
183	0x3d204da9	0.039136562
184	0x3c8d3465	0.017236898
185	0xbd96d06f	-0.07363974
186	0x3d280a48	0.04102543
187	0x3bd24188	0.0064165033
188	0xbbafd935	-0.0053664693
189	0x3d428c04	0.04749681
190	0xbc041b66	-0.008063173
191	0x3d2ecf26	0.04267802
192	0x3ca2880d	0.019840265
193	0x3ca34811	0.019931825
194	0xbbb57fb9	-0.0055389074
195	0xbdb8efcd	-0.09030113
196	0xbd96f175	-0.07370273
197	0x3d032905	0.03202154
198	0xbc88954c	-0.016672753
199	0xbd86d069	-0.0658272
200	0x3c5899cd	0.013220263
201	0xbd2680c8	-0.04065016
202	0x3cdd7c5e	0.027036842
203	0xbc6f43d6	-0.014603576
204	0xbda87844	-0.08226064
205	0xbafa07c8	-0.0019075805
206	0xbcd95c05	-0.026533136
207	0xbb94b4e7	-0.004538167
208	0x3ccb2c0d	0.024801278
209	0xbbfd8f10	-0.0077380016
210	0xbbed91ae	-0.0072500324
211	0xbdb83d8f	-0.08996116
212	0xbc4a6089	-0.012352117
213	0xbd9fabfd	-0.07796476
214	0x3c8bce49	0.017066138
215	0xbdab2a47	-0.08357673
216	0x3b87cfe1	0.004144654
217	0xbcaa118e	-0.020760324
218	0xbd01331a	-0.031542875
219	0xbd046c47	-0.032329824
220	0x3c4ef4e8	0.012631632
221	0xba8429b1	-0.0010083226
222	0xbcc6b913	-0.024258172
223	0xbdc90d18	-0.098169506
224	0xbd855853	-0.06510987
225	0xbca0a875	-0.019611577
226	0x3c6f795b	0.014616336
227	0x3bfae389	0.007656519
228	0xbd43c0a6	-0.047791146
229	0xbd719846	-0.05898311
230	0x3c2b17e8	0.010442711
231	0x3d5e410b	0.05426125
232	0x3c431833	0.011907625
233	0xbd74e9cf	-0.05979329
234	0xbbbda300	-0.0057872534
235	0xba524d16	-0.0008022351
236	0xbdcd1093	-0.10012927
237	0x3d1ed103	0.038773548
238	0xbc1ce9d1	-0.009577231
239	0x3c3c74e8	0.011502482
240	0xbd70ca32	-0.05878658
241	0x3b956207	0.004558805
242	0x3d173137	0.03691217
243	0x39a26d37	0.0003098042
244	0xbd6a711b	-0.057236772
245	0xba114bb4	-0.00055425917
246	0xbc5b1a1a	-0.013372922
247	0xbccfc078	-0.025360331
248	0xbd94de01	-0.072689064
249	0xbc27162b	-0.010198156
250	0x3cd1a0e1	0.025589408
251	0x3b7c923c	0.003853931
252	0x3c2db23b	0.0106015755
253	0x3cb995ae	0.02265438
254	0x3c866f66	0.01641054
255	0xbdc79687	-0.09745508
