demo/weights/convori_3_1_kernel_0.npy (npy, 131168 bytes, 1 tensors)

array f4 [1, 1, 256, 128]
0	0xbbb29bee	-0.005450717
1	0xbb44f9cf	-0.0030056124
2	0xbb4dd0ff	-0.003140509
3	0xbbdaa831	-0.006672882
4	0x3abcae4b	0.0014395205
5	0xba5c2897	-0.00083983823
6	0x3bff01f7	0.0077822166
7	0xbd65d179	-0.05610797
8	0xbcf98742	-0.030460004
9	0xbb740141	-0.0037232193
10	0x381ea6a1	3.782532e-05
11	0x37a6873a	1.9851712e-05
12	0x3b129500	0.0022366643
13	0xba45ac72	-0.000754065
14	0xbb120835	-0.0022282724
15	0x3bdd2107	0.006748322
16	0x39d2a209	0.00040175047
17	0x3c54d207	0.012989528
18	0xbc649590	-0.013951674
19	0x3bda4d09	0.0066620153
20	0xbc938643	-0.018008357
21	0x39500f8e	0.0001984222
22	0xbbbbc04e	-0.0057297116
23	0xbbaf74f8	-0.00535452
24	0x3b54874b	0.0032429274
25	0xbbc10a33	-0.0058911084
26	0x3a76d88c	0.0009416423
27	0x39dabf71	0.00041722835
28	0xbba4aa84	-0.00502521
29	0x3a063f9e	0.0005121174
30	0xba910bf6	-0.0011066187
31	0x3b9c6f39	0.004774001
32	0xbb823849	-0.003973995
33	0x3aba0883	0.001419321
34	0x3bf3db85	0.0074419403
35	0x3aa2bedf	0.0012416503
36	0xbcd92a00	-0.026509285
37	0xbc231301	-0.009953261
38	0xb9be2b4e	-0.00036271889
39	0x3b12da29	0.0022407866
40	0xbd28fd47	-0.04125717
41	0xb8ffce5b	-0.00012197784
42	0xb93f53b0	-0.00018246355
43	0x3aa27687	0.0012394943
44	0xbc2ab89e	-0.010419993
45	0xbb814bbc	-0.003945796
46	0x3b4b8ee9	0.0031060523
47	0xbc50f35b	-0.012753333
48	0x3aaad534	0.001303351
49	0xbbd47b6e	-0.0064844405
50	0x3a6b3186	0.0008971918
51	0xbc19de3a	-0.009391362
52	0x3c70b60f	0.014691844
53	0xba09c81f	-0.00052559556
54	0xba891d38	-0.0010460978
55	0xbcab5a92	-0.02091721
56	0xbd618295	-0.055056173
57	0xb8003321	-3.0565196e-05
58	0x3c28bc71	0.010298834
59	0xbc2d264a	-0.010568211
60	0xbbf6d437	-0.007532622
61	0x3aa1ad1c	0.0012334916
62	0x3c17865f	0.009248345
63	0x3b9f6c8f	0.004865236
64	0xbc3c4331	-0.011490629
65	0x3c1d3750	0.009595707
66	0xbb713569	-0.0036805517
67	0x3b106e00	0.0022038221
68	0x3af7fcfc	0.001892
69	0xbc5de4c8	-0.013543315
70	0x3cb7b125	0.022423336
71	0xbcaa0601	-0.020754816
72	0x3ca553fa	0.020181645
73	0x3c5b4cac	0.013384979
74	0xbbda4a0e	-0.00666166
75	0xbc836f72	-0.016044352
76	0x3bdc01c6	0.0067140786
77	0xbcc7f7af	-0.024410097
78	0x3bfffa08	0.0078117885
79	0x3b2f0584	0.0026706168
80	0x3c902bbc	0.01759898
81	0x3b5f832e	0.0034105289
82	0x39d6cb33	0.00040968656
83	0x39521da1	0.00020038198
84	0xbad67d4d	-0.0016364247
85	0xbc8b6828	-0.017017439
86	0x3924776f	0.00015684751
87	0xba44c69a	-0.00075064006
88	0xba8373fc	-0.0010029073
89	0x3ce251ac	0.027626835
90	0x3bc556bd	0.006022303
91	0x3a2e3c2a	0.00066465384
92	0xbd395ada	-0.04525266
93	0xb91ac0a5	-0.0001475835
94	0x3ab11234	0.0013509453
95	0xbb1b9f75	-0.0023746167
96	0xb5ffb360	-1.9051186e-06
97	0xbb92dd9a	-0.0044819834
98	0x3b651c6c	0.0034959568
99	0xbad15125	-0.0015969618
100	0x3c3253a7	0.010884202
101	0x3b56a3fe	0.0032751556
102	0x3bb70675	0.0055854865
103	0xbb2be7f9	-0.0026230796
104	0x3a5447ed	0.0008097876
105	0xbabfbf09	-0.0014629076
106	0x3c5daf1a	0.013530517
107	0xbbb36f34	-0.005475903
108	0xb8674f18	-5.5148354e-05
109	0x3c3196c9	0.010839173
110	0xbc649cd5	-0.013953407
111	0xbba2510b	-0.0049535087
112	0xbc0d508a	-0.008625159
113	0x3b08b482	0.0020859544
114	0xbc0f0a80	-0.008730531
115	0xbcbfe245	-0.023423323
116	0x3bb7f547	0.005613956
117	0x38a0277e	7.6367505e-05
118	0xbbff5c83	-0.0077930107
119	0x3be5a405	0.007008078
120	0xbc6f5f1f	-0.014610081
121	0xbba615f0	-0.005068533
122	0xbacbc48e	-0.0015546249
123	0xbc99a140	-0.018753648
124	0x3c192ef0	0.00934957
125	0xbb95e130	-0.0045739636
126	0xbbded2ff	-0.006800055
127	0x3ba13722	0.0049199024
128	0x3bd3b0e7	0.0064602974
129	0x3acf0367	0.0015793861
130	0xbc999a5c	-0.018750362
131	0x3c01e42f	0.007927938
132	0xba3a097f	-0.0007096752
133	0x3aaccfff	0.0013184546
134	0xbcc2fba3	-0.02380163
135	0x3c76c383	0.015061262
136	0xbc8a7cfc	-0.0169053
137	0xbac06ecb	-0.0014681456
138	0xbc0e3c95	-0.008681436
139	0xba265c72	-0.0006346173
140	0xbbced571	-0.0063120653
141	0x3c1039ad	0.0088028135
142	0x3be4e25a	0.006984991
143	0xbc459ded	-0.012061578
144	0x3b7825f6	0.0037864423
145	0x3b933582	0.0044924626
146	0xbcf41317	-0.029794259
147	0x3c2fd317	0.01073148
148	0xbb1a1055	-0.002350827
149	0x3ac3e080	0.0014944226
150	0xbc78f2a4	-0.015194569
151	0xbc19be12	-0.009383695
152	0xbabdc3e3	-0.0014477934
153	0xbb4dc65a	-0.0031398744
154	0x39a92cf0	0.00032267673
155	0xbb23763a	-0.0024942295
156	0xbbb80f3d	-0.005617051
157	0x3a2e9702	0.0006660075
158	0x3a1998b6	0.00058592425
159	0x3a93c7e9	0.0011274788
160	0x3c199551	0.009373979
161	0x3a65bbd3	0.0008763645
162	0x3d22c689	0.03974012
163	0xbbcea471	-0.006306224
164	0x39db0e81	0.0004178174
165	0xbc3d430e	-0.011551632
166	0x3a6eeb5e	0.0009114052
167	0x3bd723d2	0.0065655494
168	0xb94f7044	-0.0001978288
169	0x3abacd40	0.0014251843
170	0x3974745c	0.00023313
171	0x3b5e0218	0.003387576
172	0x3c4bbd2f	0.012435242
173	0xbc48fea0	-0.012267739
174	0x3b21e513	0.002470319
175	0x3bbf1ca8	0.0058322735
176	0xbaab1a56	-0.0013054113
177	0xbace15f3	-0.0015723094
178	0x3b279f79	0.002557723
179	0x3ae307fa	0.0017321103
180	0xbabf6703	-0.0014602843
181	0xbc044f96	-0.008075615
182	0xbc52994f	-0.012853934
183	0xbb82c479	-0.0039907065
184	0xbd188076	-0.037231885
185	0xb886b516	-6.423348e-05
186	0x3cd5cebc	0.026099555
187	0xbc84c364	-0.01620645
188	0x3bad4d27	0.0052887383
189	0x3be1383f	0.00687316
190	0xbc012cdc	-0.00788423
191	0x3ce25b59	0.027631449
192	0xb995918f	-0.00028527944
193	0x3b863090	0.0040951446
194	0xbb2daf61	-0.002650224
195	0x3bed0e06	0.0072343377
196	0x3b4b003e	0.0030975486
197	0xba0a4250	-0.00052741636
198	0x3c4c1231	0.012455509
199	0xbd0baeae	-0.034102134
200	0x3cf2a7fd	0.029621119
201	0x3cf56e6d	0.029959882
202	0xbbd5db82	-0.0065264115
203	0xbbcaca3a	-0.006188658
204	0x3be42606	0.0069625406
205	0xbc2c08d6	-0.0105001535
206	0xbb73e6ed	-0.00372165
207	0xbb8891cc	-0.004167771
208	0xbc0d83cf	-0.008637383
209	0x3ba3489c	0.004983021
210	0x39d37d30	0.00040338328
211	0xbbd03f27	-0.0063551846
212	0xba560a0c	-0.0008164949
213	0x3c36eda6	0.011165058
214	0x3a04687d	0.00050509704
215	0x3c6d05df	0.014466732
216	0x3b4ad46c	0.0030949367
217	0x3c19062c	0.00933985
218	0x3b8afcff	0.0042415853
219	0xba2d1ad9	-0.0006603427
220	0x3b876bbd	0.0041327165
221	0xb9d1eb41	-0.00040038864
222	0x3a557f9d	0.0008144321
223	0x3adae7b5	0.0016701134
224	0xb79eeace	-1.8944407e-05
225	0xbbef35bc	-0.007300107
226	0x3aef28c8	0.0018246407
227	0xbb1e9624	-0.0024198378
228	0x3bed8a3b	0.0072491444
229	0x3c7e361e	0.015515832
230	0x3c4f378d	0.012647522
231	0x3aa8eb4f	0.001288751
232	0xbb4f1a74	-0.003160146
233	0xb9f208b7	-0.0004616433
234	0xbc9b0627	-0.018923832
235	0x3c2588c0	0.0101034045
236	0xb8202b7f	-3.818748e-05
237	0xbc9fb3ac	-0.019494854
238	0x3bd8a85b	0.0066118664
239	0xbb836887	-0.0040102634
240	0xbbc9fd8e	-0.0061642593
241	0xbc35dce2	-0.011100026
242	0xbc3dbf03	-0.011581185
243	0xbcda5b6f	-0.026654927
244	0xbbb5d621	-0.005549208
245	0x397ab3bd	0.00023908816
246	0xbc8b75a9	-0.017023878
247	0xbcd5aacf	-0.026082424
248	0xbc0f6256	-0.008751472
249	0x3a04bb46	0.00050633063
250	0x3a003cfc	0.00048919
251	0xbc745361	-0.014912457
252	0x3c437421	0.011929543
253	0xbba2f704	-0.004973294
254	0xbbc6f173	-0.0060712635
255	0x399f02de	0.0003032898
