demo/weights/convori_2_1_bias_0.npy (npy, 592 bytes, 1 tensors)

array f4 [128]
00000000: 0131 9f3c 1497 f0bc cf79 7fbd d289 823b
00000010: cc28 a33c 4f7a 693c 9293 ea3b 2001 8a3d
00000020: 478a 2c3d bf2b 01bd 1fc5 42bd 587e 2abd
00000030: 1fa0 a1bd 87f2 8b3d 90a3 ac3d 09f9 3f3c
00000040: bb12 63bd 81dc 8bbd ae7c 103c 28d4 113d
00000050: fc74 813d 674b acbd 7736 883c 09a6 a13c
00000060: 21ce 92bc c5da 47be c8b8 b53d b4a6 7abd
00000070: e6dc 3d3d 1862 a1bc 94f0 d83c ba6a 6e3d
00000080: 82f0 88bc a025 83bc 6df1 e83c 6fed 0bbd
00000090: 808a 243d 76ec a4ba 93ac e93b bbd9 2c3d
000000a0: 7fdd 74bc 11b2 d9bc 3e20 e23a 15eb d1bd
000000b0: fd52 b8bc 03fa 2cbd cb26 ed3c e749 d1bc
000000c0: 5414 d13c b55e 37ba 0b58 8e3c 556d 85bd
000000d0: 9190 c1bc 0f1b 86bd d8f1 8cbb 70c9 00b9
000000e0: 15a6 26bd 352e 42be 03b9 953b 2d92 f6bc
000000f0: c1f8 003d 33f6 a9bd 5d57 f1bc 1865 a6bc
00000100: d3ca c1bd 2a13 273c f7e1 b6bc 0f6a 873d
00000110: 389d b33c 835c b03d 7ddf 083c 65d4 8b39
00000120: 846b c9bc 5184 75bb 71c0 2dbd 1eda 2dbe
00000130: 45fc 9b3c dc26 98bc d3b3 35bb c4a8 54bd
00000140: 76f3 893d d58b e6bc c2bf d2bc 6eaf 373d
00000150: 179a 163c 4502 24bd 269c 32bd c8f4 1a3d
00000160: 7663 2b3b 12dc b0bb 2da6 b8ba 2e53 2cbc
00000170: 2f54 1ebb a206 30bd 3a4d aabd c5cd b4bd
00000180: da20 f03c 1893 bbbb f80e e83c 3e30 00bd
00000190: a77d aebd 99db 793c d719 a2bc 1719 593c
000001a0: 6d6f 16bd acda 853d 0ce6 b5bd 5054 863c
000001b0: fb44 a3bb b8de 9f39 2b19 80bc d6e5 46bc
000001c0: 4e26 e1bb d427 7abd 51c0 0d3e c973 5f3d
000001d0: 4a23 c33c f623 0e3d 63a2 1b3c e26d a43c
000001e0: c789 843b d36c 8a3c 9824 d93b ebcc d6bd
000001f0: da81 d43b caf3 da3c 2b61 a53d d080 213d
0.019432547 -0.029368915 -0.062372025 0.0039837146 0.019916914 0.014250352 0.007158705 0.06738496
0.04212406 -0.03153586 -0.04755127 -0.041624397 -0.07891869 0.06833368 0.084296346 0.011717089
-0.055437785 -0.06829167 0.008818788 0.03560272 0.06321141 -0.08412819 0.016627533 0.019732492
-0.017920556 -0.19517048 0.08873135 -0.061194137 0.046353243 -0.019700095 0.026481904 0.05820725
-0.016716246 -0.016009152 0.028435433 -0.03416198 0.040171146 -0.0012582678 0.007131168 0.04219983
-0.014945387 -0.026574166 0.001725204 -0.102499165 -0.02250051 -0.042230617 0.028949162 -0.025547935
0.025522389 -0.00069950084 0.017375967 -0.06514994 -0.023628505 -0.0654813 -0.004301291 -0.00012282073
-0.040685732 -0.18962939 0.0045691743 -0.030098999 0.03148723 -0.08298912 -0.029460603 -0.020311877
-0.09462514 0.01019744 -0.022324545 0.06612026 0.021925554 0.08611395 0.008354065 0.00026670392
-0.0245874 -0.00374629 -0.042419855 -0.16977736 0.01904119 -0.018573217 -0.0027725592 -0.05191876
0.067358896 -0.028142849 -0.025726203 0.044845037 0.009192011 -0.040041227 -0.043605946 0.037831098
0.0026151813 -0.005397328 -0.001408761 -0.010517878 -0.0024159064 -0.042975076 -0.08315511 -0.0882831
0.02931254 -0.005724322 0.02832745 -0.031296007 -0.0852006 0.01525011 -0.019787712 0.013250611
-0.036727358 0.06535849 -0.088817686 0.016397625 -0.0049825883 0.00030492782 -0.015637001 -0.012139758
-0.0068710214 -0.06107314 0.13842894 0.05455378 0.023820538 0.034702264 0.009499165 0.020071927
0.0040447447 0.016897595 0.006626677 -0.10488304 0.006485206 0.026727576 0.08075174 0.039429486
